Color jitter: None
ProxylessNASNets(
  (first_conv): ConvLayer(
    (conv): Conv2d(3, 32, kernel_size=(3, 3), stride=(2, 2), padding=(1, 1), bias=False)
    (bn): BatchNorm2d(32, eps=0.001, momentum=0.1, affine=True, track_running_stats=True)
    (act): ReLU6(inplace=True)
  )
  (blocks): ModuleList(
    (0): MobileInvertedResidualBlock(
      (mobile_inverted_conv): MBInvertedConvLayer(
        (depth_conv): Sequential(
          (conv): Conv2d(32, 32, kernel_size=(3, 3), stride=(1, 1), padding=(1, 1), groups=32, bias=False)
          (bn): BatchNorm2d(32, eps=0.001, momentum=0.1, affine=True, track_running_stats=True)
          (act): ReLU6(inplace=True)
        )
        (point_linear): Sequential(
          (conv): Conv2d(32, 16, kernel_size=(1, 1), stride=(1, 1), bias=False)
          (bn): BatchNorm2d(16, eps=0.001, momentum=0.1, affine=True, track_running_stats=True)
        )
      )
    )
    (1): MobileInvertedResidualBlock(
      (mobile_inverted_conv): MBInvertedConvLayer(
        (inverted_bottleneck): Sequential(
          (conv): Conv2d(16, 96, kernel_size=(1, 1), stride=(1, 1), bias=False)
          (bn): BatchNorm2d(96, eps=0.001, momentum=0.1, affine=True, track_running_stats=True)
          (act): ReLU6(inplace=True)
        )
        (depth_conv): Sequential(
          (conv): Conv2d(96, 96, kernel_size=(7, 7), stride=(2, 2), padding=(3, 3), groups=96, bias=False)
          (bn): BatchNorm2d(96, eps=0.001, momentum=0.1, affine=True, track_running_stats=True)
          (act): ReLU6(inplace=True)
        )
        (point_linear): Sequential(
          (conv): Conv2d(96, 24, kernel_size=(1, 1), stride=(1, 1), bias=False)
          (bn): BatchNorm2d(24, eps=0.001, momentum=0.1, affine=True, track_running_stats=True)
        )
      )
    )
    (2): MobileInvertedResidualBlock(
      (mobile_inverted_conv): MBInvertedConvLayer(
        (inverted_bottleneck): Sequential(
          (conv): Conv2d(24, 144, kernel_size=(1, 1), stride=(1, 1), bias=False)
          (bn): BatchNorm2d(144, eps=0.001, momentum=0.1, affine=True, track_running_stats=True)
          (act): ReLU6(inplace=True)
        )
        (depth_conv): Sequential(
          (conv): Conv2d(144, 144, kernel_size=(5, 5), stride=(1, 1), padding=(2, 2), groups=144, bias=False)
          (bn): BatchNorm2d(144, eps=0.001, momentum=0.1, affine=True, track_running_stats=True)
          (act): ReLU6(inplace=True)
        )
        (point_linear): Sequential(
          (conv): Conv2d(144, 24, kernel_size=(1, 1), stride=(1, 1), bias=False)
          (bn): BatchNorm2d(24, eps=0.001, momentum=0.1, affine=True, track_running_stats=True)
        )
      )
      (shortcut): IdentityLayer()
    )
    (3): MobileInvertedResidualBlock(
      (mobile_inverted_conv): MBInvertedConvLayer(
        (inverted_bottleneck): Sequential(
          (conv): Conv2d(24, 144, kernel_size=(1, 1), stride=(1, 1), bias=False)
          (bn): BatchNorm2d(144, eps=0.001, momentum=0.1, affine=True, track_running_stats=True)
          (act): ReLU6(inplace=True)
        )
        (depth_conv): Sequential(
          (conv): Conv2d(144, 144, kernel_size=(3, 3), stride=(1, 1), padding=(1, 1), groups=144, bias=False)
          (bn): BatchNorm2d(144, eps=0.001, momentum=0.1, affine=True, track_running_stats=True)
          (act): ReLU6(inplace=True)
        )
        (point_linear): Sequential(
          (conv): Conv2d(144, 24, kernel_size=(1, 1), stride=(1, 1), bias=False)
          (bn): BatchNorm2d(24, eps=0.001, momentum=0.1, affine=True, track_running_stats=True)
        )
      )
      (shortcut): IdentityLayer()
    )
    (4): MobileInvertedResidualBlock(
      (mobile_inverted_conv): MBInvertedConvLayer(
        (inverted_bottleneck): Sequential(
          (conv): Conv2d(24, 144, kernel_size=(1, 1), stride=(1, 1), bias=False)
          (bn): BatchNorm2d(144, eps=0.001, momentum=0.1, affine=True, track_running_stats=True)
          (act): ReLU6(inplace=True)
        )
        (depth_conv): Sequential(
          (conv): Conv2d(144, 144, kernel_size=(7, 7), stride=(1, 1), padding=(3, 3), groups=144, bias=False)
          (bn): BatchNorm2d(144, eps=0.001, momentum=0.1, affine=True, track_running_stats=True)
          (act): ReLU6(inplace=True)
        )
        (point_linear): Sequential(
          (conv): Conv2d(144, 24, kernel_size=(1, 1), stride=(1, 1), bias=False)
          (bn): BatchNorm2d(24, eps=0.001, momentum=0.1, affine=True, track_running_stats=True)
        )
      )
      (shortcut): IdentityLayer()
    )
    (5): MobileInvertedResidualBlock(
      (mobile_inverted_conv): MBInvertedConvLayer(
        (inverted_bottleneck): Sequential(
          (conv): Conv2d(24, 144, kernel_size=(1, 1), stride=(1, 1), bias=False)
          (bn): BatchNorm2d(144, eps=0.001, momentum=0.1, affine=True, track_running_stats=True)
          (act): ReLU6(inplace=True)
        )
        (depth_conv): Sequential(
          (conv): Conv2d(144, 144, kernel_size=(7, 7), stride=(2, 2), padding=(3, 3), groups=144, bias=False)
          (bn): BatchNorm2d(144, eps=0.001, momentum=0.1, affine=True, track_running_stats=True)
          (act): ReLU6(inplace=True)
        )
        (point_linear): Sequential(
          (conv): Conv2d(144, 40, kernel_size=(1, 1), stride=(1, 1), bias=False)
          (bn): BatchNorm2d(40, eps=0.001, momentum=0.1, affine=True, track_running_stats=True)
        )
      )
    )
    (6-8): 3 x MobileInvertedResidualBlock(
      (mobile_inverted_conv): MBInvertedConvLayer(
        (inverted_bottleneck): Sequential(
          (conv): Conv2d(40, 240, kernel_size=(1, 1), stride=(1, 1), bias=False)
          (bn): BatchNorm2d(240, eps=0.001, momentum=0.1, affine=True, track_running_stats=True)
          (act): ReLU6(inplace=True)
        )
        (depth_conv): Sequential(
          (conv): Conv2d(240, 240, kernel_size=(5, 5), stride=(1, 1), padding=(2, 2), groups=240, bias=False)
          (bn): BatchNorm2d(240, eps=0.001, momentum=0.1, affine=True, track_running_stats=True)
          (act): ReLU6(inplace=True)
        )
        (point_linear): Sequential(
          (conv): Conv2d(240, 40, kernel_size=(1, 1), stride=(1, 1), bias=False)
          (bn): BatchNorm2d(40, eps=0.001, momentum=0.1, affine=True, track_running_stats=True)
        )
      )
      (shortcut): IdentityLayer()
    )
    (9): MobileInvertedResidualBlock(
      (mobile_inverted_conv): MBInvertedConvLayer(
        (inverted_bottleneck): Sequential(
          (conv): Conv2d(40, 240, kernel_size=(1, 1), stride=(1, 1), bias=False)
          (bn): BatchNorm2d(240, eps=0.001, momentum=0.1, affine=True, track_running_stats=True)
          (act): ReLU6(inplace=True)
        )
        (depth_conv): Sequential(
          (conv): Conv2d(240, 240, kernel_size=(7, 7), stride=(2, 2), padding=(3, 3), groups=240, bias=False)
          (bn): BatchNorm2d(240, eps=0.001, momentum=0.1, affine=True, track_running_stats=True)
          (act): ReLU6(inplace=True)
        )
        (point_linear): Sequential(
          (conv): Conv2d(240, 80, kernel_size=(1, 1), stride=(1, 1), bias=False)
          (bn): BatchNorm2d(80, eps=0.001, momentum=0.1, affine=True, track_running_stats=True)
        )
      )
    )
    (10): MobileInvertedResidualBlock(
      (mobile_inverted_conv): ZeroLayer()
      (shortcut): IdentityLayer()
    )
    (11): MobileInvertedResidualBlock(
      (mobile_inverted_conv): MBInvertedConvLayer(
        (inverted_bottleneck): Sequential(
          (conv): Conv2d(80, 480, kernel_size=(1, 1), stride=(1, 1), bias=False)
          (bn): BatchNorm2d(480, eps=0.001, momentum=0.1, affine=True, track_running_stats=True)
          (act): ReLU6(inplace=True)
        )
        (depth_conv): Sequential(
          (conv): Conv2d(480, 480, kernel_size=(3, 3), stride=(1, 1), padding=(1, 1), groups=480, bias=False)
          (bn): BatchNorm2d(480, eps=0.001, momentum=0.1, affine=True, track_running_stats=True)
          (act): ReLU6(inplace=True)
        )
        (point_linear): Sequential(
          (conv): Conv2d(480, 80, kernel_size=(1, 1), stride=(1, 1), bias=False)
          (bn): BatchNorm2d(80, eps=0.001, momentum=0.1, affine=True, track_running_stats=True)
        )
      )
      (shortcut): IdentityLayer()
    )
    (12): MobileInvertedResidualBlock(
      (mobile_inverted_conv): ZeroLayer()
      (shortcut): IdentityLayer()
    )
    (13): MobileInvertedResidualBlock(
      (mobile_inverted_conv): MBInvertedConvLayer(
        (inverted_bottleneck): Sequential(
          (conv): Conv2d(80, 480, kernel_size=(1, 1), stride=(1, 1), bias=False)
          (bn): BatchNorm2d(480, eps=0.001, momentum=0.1, affine=True, track_running_stats=True)
          (act): ReLU6(inplace=True)
        )
        (depth_conv): Sequential(
          (conv): Conv2d(480, 480, kernel_size=(7, 7), stride=(1, 1), padding=(3, 3), groups=480, bias=False)
          (bn): BatchNorm2d(480, eps=0.001, momentum=0.1, affine=True, track_running_stats=True)
          (act): ReLU6(inplace=True)
        )
        (point_linear): Sequential(
          (conv): Conv2d(480, 96, kernel_size=(1, 1), stride=(1, 1), bias=False)
          (bn): BatchNorm2d(96, eps=0.001, momentum=0.1, affine=True, track_running_stats=True)
        )
      )
    )
    (14-15): 2 x MobileInvertedResidualBlock(
      (mobile_inverted_conv): MBInvertedConvLayer(
        (inverted_bottleneck): Sequential(
          (conv): Conv2d(96, 576, kernel_size=(1, 1), stride=(1, 1), bias=False)
          (bn): BatchNorm2d(576, eps=0.001, momentum=0.1, affine=True, track_running_stats=True)
          (act): ReLU6(inplace=True)
        )
        (depth_conv): Sequential(
          (conv): Conv2d(576, 576, kernel_size=(5, 5), stride=(1, 1), padding=(2, 2), groups=576, bias=False)
          (bn): BatchNorm2d(576, eps=0.001, momentum=0.1, affine=True, track_running_stats=True)
          (act): ReLU6(inplace=True)
        )
        (point_linear): Sequential(
          (conv): Conv2d(576, 96, kernel_size=(1, 1), stride=(1, 1), bias=False)
          (bn): BatchNorm2d(96, eps=0.001, momentum=0.1, affine=True, track_running_stats=True)
        )
      )
      (shortcut): IdentityLayer()
    )
    (16): MobileInvertedResidualBlock(
      (mobile_inverted_conv): MBInvertedConvLayer(
        (inverted_bottleneck): Sequential(
          (conv): Conv2d(96, 576, kernel_size=(1, 1), stride=(1, 1), bias=False)
          (bn): BatchNorm2d(576, eps=0.001, momentum=0.1, affine=True, track_running_stats=True)
          (act): ReLU6(inplace=True)
        )
        (depth_conv): Sequential(
          (conv): Conv2d(576, 576, kernel_size=(3, 3), stride=(1, 1), padding=(1, 1), groups=576, bias=False)
          (bn): BatchNorm2d(576, eps=0.001, momentum=0.1, affine=True, track_running_stats=True)
          (act): ReLU6(inplace=True)
        )
        (point_linear): Sequential(
          (conv): Conv2d(576, 96, kernel_size=(1, 1), stride=(1, 1), bias=False)
          (bn): BatchNorm2d(96, eps=0.001, momentum=0.1, affine=True, track_running_stats=True)
        )
      )
      (shortcut): IdentityLayer()
    )
    (17): MobileInvertedResidualBlock(
      (mobile_inverted_conv): MBInvertedConvLayer(
        (inverted_bottleneck): Sequential(
          (conv): Conv2d(96, 576, kernel_size=(1, 1), stride=(1, 1), bias=False)
          (bn): BatchNorm2d(576, eps=0.001, momentum=0.1, affine=True, track_running_stats=True)
          (act): ReLU6(inplace=True)
        )
        (depth_conv): Sequential(
          (conv): Conv2d(576, 576, kernel_size=(7, 7), stride=(2, 2), padding=(3, 3), groups=576, bias=False)
          (bn): BatchNorm2d(576, eps=0.001, momentum=0.1, affine=True, track_running_stats=True)
          (act): ReLU6(inplace=True)
        )
        (point_linear): Sequential(
          (conv): Conv2d(576, 192, kernel_size=(1, 1), stride=(1, 1), bias=False)
          (bn): BatchNorm2d(192, eps=0.001, momentum=0.1, affine=True, track_running_stats=True)
        )
      )
    )
    (18-20): 3 x MobileInvertedResidualBlock(
      (mobile_inverted_conv): MBInvertedConvLayer(
        (inverted_bottleneck): Sequential(
          (conv): Conv2d(192, 1152, kernel_size=(1, 1), stride=(1, 1), bias=False)
          (bn): BatchNorm2d(1152, eps=0.001, momentum=0.1, affine=True, track_running_stats=True)
          (act): ReLU6(inplace=True)
        )
        (depth_conv): Sequential(
          (conv): Conv2d(1152, 1152, kernel_size=(7, 7), stride=(1, 1), padding=(3, 3), groups=1152, bias=False)
          (bn): BatchNorm2d(1152, eps=0.001, momentum=0.1, affine=True, track_running_stats=True)
          (act): ReLU6(inplace=True)
        )
        (point_linear): Sequential(
          (conv): Conv2d(1152, 192, kernel_size=(1, 1), stride=(1, 1), bias=False)
          (bn): BatchNorm2d(192, eps=0.001, momentum=0.1, affine=True, track_running_stats=True)
        )
      )
      (shortcut): IdentityLayer()
    )
    (21): MobileInvertedResidualBlock(
      (mobile_inverted_conv): MBInvertedConvLayer(
        (inverted_bottleneck): Sequential(
          (conv): Conv2d(192, 1152, kernel_size=(1, 1), stride=(1, 1), bias=False)
          (bn): BatchNorm2d(1152, eps=0.001, momentum=0.1, affine=True, track_running_stats=True)
          (act): ReLU6(inplace=True)
        )
        (depth_conv): Sequential(
          (conv): Conv2d(1152, 1152, kernel_size=(3, 3), stride=(1, 1), padding=(1, 1), groups=1152, bias=False)
          (bn): BatchNorm2d(1152, eps=0.001, momentum=0.1, affine=True, track_running_stats=True)
          (act): ReLU6(inplace=True)
        )
        (point_linear): Sequential(
          (conv): Conv2d(1152, 320, kernel_size=(1, 1), stride=(1, 1), bias=False)
          (bn): BatchNorm2d(320, eps=0.001, momentum=0.1, affine=True, track_running_stats=True)
        )
      )
    )
  )
  (feature_mix_layer): ConvLayer(
    (conv): Conv2d(320, 1280, kernel_size=(1, 1), stride=(1, 1), bias=False)
    (bn): BatchNorm2d(1280, eps=0.001, momentum=0.1, affine=True, track_running_stats=True)
    (act): ReLU6(inplace=True)
  )
  (global_avg_pooling): AdaptiveAvgPool2d(output_size=1)
  (classifier): LinearLayer(
    (linear): Linear(in_features=1280, out_features=1000, bias=True)
  )
)
child mobile_inverted_conv
child  of child mobile_inverted_conv
child  of child mobile_inverted_conv
child mobile_inverted_conv
child  of child mobile_inverted_conv
child  of child mobile_inverted_conv
child  of child mobile_inverted_conv
child mobile_inverted_conv
child  of child mobile_inverted_conv
child  of child mobile_inverted_conv
child  of child mobile_inverted_conv
…
