…
	validation_frequency: 1
	print_frequency: 10
	n_worker: 32
	resize_scale: 0.08
	distort_color: normal
Architecture Search config:
	type: <class 'nas_manager.GradientArchSearchConfig'>
	arch_init_type: normal
	arch_init_ratio: 0.001
	opt_type: adam
	lr: 0.001
	opt_param: {'betas': (0, 0.999), 'eps': 1e-08}
	weight_decay: 0
	target_hardware: flops
	ref_value: 300000000.0
	update_arch_param_every: 5
	update_steps: 1
	binary_mode: two
	data_batch: None
	reg_loss_type: mul#log
	reg_loss_params: {'alpha': 0.2, 'beta': 0.3}
DataParallel(
  (module): SuperProxylessNASNets(
    (first_conv): ConvLayer(
      (conv): Conv2d(3, 32, kernel_size=(3, 3), stride=(2, 2), padding=(1, 1), bias=False)
      (bn): BatchNorm2d(32, eps=0.001, momentum=0.1, affine=True, track_running_stats=True)
      (act): ReLU6(inplace=True)
    )
    (blocks): ModuleList(
      (0): MobileInvertedResidualBlock(
        (mobile_inverted_conv): MBInvertedConvLayer(
          (depth_conv): Sequential(
            (conv): Conv2d(32, 32, kernel_size=(3, 3), stride=(1, 1), padding=(1, 1), groups=32, bias=False)
            (bn): BatchNorm2d(32, eps=0.001, momentum=0.1, affine=True, track_running_stats=True)
            (act): ReLU6(inplace=True)
          )
          (point_linear): Sequential(
            (conv): Conv2d(32, 16, kernel_size=(1, 1), stride=(1, 1), bias=False)
            (bn): BatchNorm2d(16, eps=0.001, momentum=0.1, affine=True, track_running_stats=True)
          )
        )
      )
      (1): MobileInvertedResidualBlock(
        (mobile_inverted_conv): MixedEdge(
          (candidate_ops): ModuleList(
            (0): MBInvertedConvLayer(
              (inverted_bottleneck): Sequential(
                (conv): Conv2d(16, 48, kernel_size=(1, 1), stride=(1, 1), bias=False)
                (bn): BatchNorm2d(48, eps=0.001, momentum=0.1, affine=True, track_running_stats=True)
                (act): ReLU6(inplace=True)
              )
              (depth_conv): Sequential(
                (conv): Conv2d(48, 48, kernel_size=(3, 3), stride=(2, 2), padding=(1, 1), groups=48, bias=False)
                (bn): BatchNorm2d(48, eps=0.001, momentum=0.1, affine=True, track_running_stats=True)
                (act): ReLU6(inplace=True)
              )
              (point_linear): Sequential(
                (conv): Conv2d(48, 24, kernel_size=(1, 1), stride=(1, 1), bias=False)
                (bn): BatchNorm2d(24, eps=0.001, momentum=0.1, affine=True, track_running_stats=True)
              )
            )
            (1): MBInvertedConvLayer(
              (inverted_bottleneck): Sequential(
                (conv): Conv2d(16, 96, kernel_size=(1, 1), stride=(1, 1), bias=False)
                (bn): BatchNorm2d(96, eps=0.001, momentum=0.1, affine=True, track_running_stats=True)
                (act): ReLU6(inplace=True)
              )
              (depth_conv): Sequential(
                (conv): Conv2d(96, 96, kernel_size=(3, 3), stride=(2, 2), padding=(1, 1), groups=96, bias=False)
                (bn): BatchNorm2d(96, eps=0.001, momentum=0.1, affine=True, track_running_stats=True)
                (act): ReLU6(inplace=True)
              )
              (point_linear): Sequential(
                (conv): Conv2d(96, 24, kernel_size=(1, 1), stride=(1, 1), bias=False)
                (bn): BatchNorm2d(24, eps=0.001, momentum=0.1, affine=True, track_running_stats=True)
              )
            )
            (2): MBInvertedConvLayer(
              (inverted_bottleneck): Sequential(
                (conv): Conv2d(16, 48, kernel_size=(1, 1), stride=(1, 1), bias=False)
                (bn): BatchNorm2d(48, eps=0.001, momentum=0.1, affine=True, track_running_stats=True)
                (act): ReLU6(inplace=True)
              )
              (depth_conv): Sequential(
                (conv): Conv2d(48, 48, kernel_size=(5, 5), stride=(2, 2), padding=(2, 2), groups=48, bias=False)
                (bn): BatchNorm2d(48, eps=0.001, momentum=0.1, affine=True, track_running_stats=True)
                (act): ReLU6(inplace=True)
              )
              (point_linear): Sequential(
                (conv): Conv2d(48, 24, kernel_size=(1, 1), stride=(1, 1), bias=False)
                (bn): BatchNorm2d(24, eps=0.001, momentum=0.1, affine=True, track_running_stats=True)
              )
            )
            (3): MBInvertedConvLayer(
              (inverted_bottleneck): Sequential(
                (conv): Conv2d(16, 96, kernel_size=(1, 1), stride=(1, 1), bias=False)
                (bn): BatchNorm2d(96, eps=0.001, momentum=0.1, affine=True, track_running_stats=True)
                (act): ReLU6(inplace=True)
              )
              (depth_conv): Sequential(
                (conv): Conv2d(96, 96, kernel_size=(5, 5), stride=(2, 2), padding=(2, 2), groups=96, bias=False)
                (bn): BatchNorm2d(96, eps=0.001, momentum=0.1, affine=True, track_running_stats=True)
                (act): ReLU6(inplace=True)
              )
              (point_linear): Sequential(
                (conv): Conv2d(96, 24, kernel_size=(1, 1), stride=(1, 1), bias=False)
                (bn): BatchNorm2d(24, eps=0.001, momentum=0.1, affine=True, track_running_stats=True)
              )
            )
          )
        )
      )
      (2-3): 2 x MobileInvertedResidualBlock(
        (mobile_inverted_conv): MixedEdge(
          (candidate_ops): ModuleList(
            (0): MBInvertedConvLayer(
              (inverted_bottleneck): Sequential(
                (conv): Conv2d(24, 72, kernel_size=(1, 1), stride=(1, 1), bias=False)
                (bn): BatchNorm2d(72, eps=0.001, momentum=0.1, affine=True, track_running_stats=True)
                (act): ReLU6(inplace=True)
              )
              (depth_conv): Sequential(
                (conv): Conv2d(72, 72, kernel_size=(3, 3), stride=(1, 1), padding=(1, 1), groups=72, bias=False)
                (bn): BatchNorm2d(72, eps=0.001, momentum=0.1, affine=True, track_running_stats=True)
                (act): ReLU6(inplace=True)
              )
              (point_linear): Sequential(
                (conv): Conv2d(72, 24, kernel_size=(1, 1), stride=(1, 1), bias=False)
                (bn): BatchNorm2d(24, eps=0.001, momentum=0.1, affine=True, track_running_stats=True)
              )
            )
            (1): MBInvertedConvLayer(
              (inverted_bottleneck): Sequential(
                (conv): Conv2d(24, 144, kernel_size=(1, 1), stride=(1, 1), bias=False)
                (bn): BatchNorm2d(144, eps=0.001, momentum=0.1, affine=True, track_running_stats=True)
                (act): ReLU6(inplace=True)
              )
              (depth_conv): Sequential(
                (conv): Conv2d(144, 144, kernel_size=(3, 3), stride=(1, 1), padding=(1, 1), groups=144, bias=False)
                (bn): BatchNorm2d(144, eps=0.001, momentum=0.1, affine=True, track_running_stats=True)
                (act): ReLU6(inplace=True)
              )
              (point_linear): Sequential(
                (conv): Conv2d(144, 24, kernel_size=(1, 1), stride=(1, 1), bias=False)
                (bn): BatchNorm2d(24, eps=0.001, momentum=0.1, affine=True, track_running_stats=True)
              )
            )
            (2): MBInvertedConvLayer(
              (inverted_bottleneck): Sequential(
                (conv): Conv2d(24, 72, kernel_size=(1, 1), stride=(1, 1), bias=False)
                (bn): BatchNorm2d(72, eps=0.001, momentum=0.1, affine=True, track_running_stats=True)
                (act): ReLU6(inplace=True)
              )
              (depth_conv): Sequential(
                (conv): Conv2d(72, 72, kernel_size=(5, 5), stride=(1, 1), padding=(2, 2), groups=72, bias=False)
                (bn): BatchNorm2d(72, eps=0.001, momentum=0.1, affine=True, track_running_stats=True)
                (act): ReLU6(inplace=True)
              )
              (point_linear): Sequential(
                (conv): Conv2d(72, 24, kernel_size=(1, 1), stride=(1, 1), bias=False)
                (bn): BatchNorm2d(24, eps=0.001, momentum=0.1, affine=True, track_running_stats=True)
              )
            )
            (3): MBInvertedConvLayer(
              (inverted_bottleneck): Sequential(
                (conv): Conv2d(24, 144, kernel_size=(1, 1), stride=(1, 1), bias=False)
                (bn): BatchNorm2d(144, eps=0.001, momentum=0.1, affine=True, track_running_stats=True)
                (act): ReLU6(inplace=True)
              )
              (depth_conv): Sequential(
                (conv): Conv2d(144, 144, kernel_size=(5, 5), stride=(1, 1), padding=(2, 2), groups=144, bias=False)
                (bn): BatchNorm2d(144, eps=0.001, momentum=0.1, affine=True, track_running_stats=True)
                (act): ReLU6(inplace=True)
              )
              (point_linear): Sequential(
                (conv): Conv2d(144, 24, kernel_size=(1, 1), stride=(1, 1), bias=False)
                (bn): BatchNorm2d(24, eps=0.001, momentum=0.1, affine=True, track_running_stats=True)
              )
            )
            (4): ZeroLayer()
          )
        )
        (shortcut): IdentityLayer()
      )
      (4): MobileInvertedResidualBlock(
        (mobile_inverted_conv): MixedEdge(
          (candidate_ops): ModuleList(
            (0): MBInvertedConvLayer(
              (inverted_bottleneck): Sequential(
                (conv): Conv2d(24, 72, kernel_size=(1, 1), stride=(1, 1), bias=False)
                (bn): BatchNorm2d(72, eps=0.001, momentum=0.1, affine=True, track_running_stats=True)
                (act): ReLU6(inplace=True)
              )
              (depth_conv): Sequential(
                (conv): Conv2d(72, 72, kernel_size=(3, 3), stride=(2, 2), padding=(1, 1), groups=72, bias=False)
                (bn): BatchNorm2d(72, eps=0.001, momentum=0.1, affine=True, track_running_stats=True)
                (act): ReLU6(inplace=True)
              )
              (point_linear): Sequential(
                (conv): Conv2d(72, 40, kernel_size=(1, 1), stride=(1, 1), bias=False)
                (bn): BatchNorm2d(40, eps=0.001, momentum=0.1, affine=True, track_running_stats=True)
              )
            )
            (1): MBInvertedConvLayer(
              (inverted_bottleneck): Sequential(
                (conv): Conv2d(24, 144, kernel_size=(1, 1), stride=(1, 1), bias=False)
                (bn): BatchNorm2d(144, eps=0.001, momentum=0.1, affine=True, track_running_stats=True)
                (act): ReLU6(inplace=True)
              )
              (depth_conv): Sequential(
                (conv): Conv2d(144, 144, kernel_size=(3, 3), stride=(2, 2), padding=(1, 1), groups=144, bias=False)
                (bn): BatchNorm2d(144, eps=0.001, momentum=0.1, affine=True, track_running_stats=True)
                (act): ReLU6(inplace=True)
              )
              (point_linear): Sequential(
                (conv): Conv2d(144, 40, kernel_size=(1, 1), stride=(1, 1), bias=False)
                (bn): BatchNorm2d(40, eps=0.001, momentum=0.1, affine=True, track_running_stats=True)
              )
            )
            (2): MBInvertedConvLayer(
              (inverted_bottleneck): Sequential(
                (conv): Conv2d(24, 72, kernel_size=(1, 1), stride=(1, 1), bias=False)
                (bn): BatchNorm2d(72, eps=0.001, momentum=0.1, affine=True, track_running_stats=True)
                (act): ReLU6(inplace=True)
              )
              (depth_conv): Sequential(
                (conv): Conv2d(72, 72, kernel_size=(5, 5), stride=(2, 2), padding=(2, 2), groups=72, bias=False)
                (bn): BatchNorm2d(72, eps=0.001, momentum=0.1, affine=True, track_running_stats=True)
                (act): ReLU6(inplace=True)
              )
              (point_linear): Sequential(
                (conv): Conv2d(72, 40, kernel_size=(1, 1), stride=(1, 1), bias=False)
                (bn): BatchNorm2d(40, eps=0.001, momentum=0.1, affine=True, track_running_stats=True)
              )
            )
            (3): MBInvertedConvLayer(
              (inverted_bottleneck): Sequential(
                (conv): Conv2d(24, 144, kernel_size=(1, 1), stride=(1, 1), bias=False)
                (bn): BatchNorm2d(144, eps=0.001, momentum=0.1, affine=True, track_running_stats=True)
                (act): ReLU6(inplace=True)
              )
              (depth_conv): Sequential(
                (conv): Conv2d(144, 144, kernel_size=(5, 5), stride=(2, 2), padding=(2, 2), groups=144, bias=False)
                (bn): BatchNorm2d(144, eps=0.001, momentum=0.1, affine=True, track_running_stats=True)
                (act): ReLU6(inplace=True)
              )
              (point_linear): Sequential(
                (conv): Conv2d(144, 40, kernel_size=(1, 1), stride=(1, 1), bias=False)
                (bn): BatchNorm2d(40, eps=0.001, momentum=0.1, affine=True, track_running_stats=True)
              )
            )
          )
        )
      )
      (5-6): 2 x MobileInvertedResidualBlock(
        (mobile_inverted_conv): MixedEdge(
          (candidate_ops): ModuleList(
            (0): MBInvertedConvLayer(
              (inverted_bottleneck): Sequential(
                (conv): Conv2d(40, 120, kernel_size=(1, 1), stride=(1, 1), bias=False)
                (bn): BatchNorm2d(120, eps=0.001, momentum=0.1, affine=True, track_running_stats=True)
                (act): ReLU6(inplace=True)
              )
              (depth_conv): Sequential(
                (conv): Conv2d(120, 120, kernel_size=(3, 3), stride=(1, 1), padding=(1, 1), groups=120, bias=False)
                (bn): BatchNorm2d(120, eps=0.001, momentum=0.1, affine=True, track_running_stats=True)
                (act): ReLU6(inplace=True)
              )
              (point_linear): Sequential(
                (conv): Conv2d(120, 40, kernel_size=(1, 1), stride=(1, 1), bias=False)
                (bn): BatchNorm2d(40, eps=0.001, momentum=0.1, affine=True, track_running_stats=True)
              )
            )
            (1): MBInvertedConvLayer(
              (inverted_bottleneck): Sequential(
                (conv): Conv2d(40, 240, kernel_size=(1, 1), stride=(1, 1), bias=False)
                (bn): BatchNorm2d(240, eps=0.001, momentum=0.1, affine=True, track_running_stats=True)
                (act): ReLU6(inplace=True)
              )
              (depth_conv): Sequential(
                (conv): Conv2d(240, 240, kernel_size=(3, 3), stride=(1, 1), padding=(1, 1), groups=240, bias=False)
                (bn): BatchNorm2d(240, eps=0.001, momentum=0.1, affine=True, track_running_stats=True)
                (act): ReLU6(inplace=True)
              )
              (point_linear): Sequential(
                (conv): Conv2d(240, 40, kernel_size=(1, 1), stride=(1, 1), bias=False)
                (bn): BatchNorm2d(40, eps=0.001, momentum=0.1, affine=True, track_running_stats=True)
              )
            )
            (2): MBInvertedConvLayer(
              (inverted_bottleneck): Sequential(
                (conv): Conv2d(40, 120, kernel_size=(1, 1), stride=(1, 1), bias=False)
                (bn): BatchNorm2d(120, eps=0.001, momentum=0.1, affine=True, track_running_stats=True)
                (act): ReLU6(inplace=True)
              )
              (depth_conv): Sequential(
                (conv): Conv2d(120, 120, kernel_size=(5, 5), stride=(1, 1), padding=(2, 2), groups=120, bias=False)
                (bn): BatchNorm2d(120, eps=0.001, momentum=0.1, affine=True, track_running_stats=True)
                (act): ReLU6(inplace=True)
              )
              (point_linear): Sequential(
                (conv): Conv2d(120, 40, kernel_size=(1, 1), stride=(1, 1), bias=False)
                (bn): BatchNorm2d(40, eps=0.001, momentum=0.1, affine=True, track_running_stats=True)
              )
            )
            (3): MBInvertedConvLayer(
              (inverted_bottleneck): Sequential(
                (conv): Conv2d(40, 240, kernel_size=(1, 1), stride=(1, 1), bias=False)
                (bn): BatchNorm2d(240, eps=0.001, momentum=0.1, affine=True, track_running_stats=True)
                (act): ReLU6(inplace=True)
              )
              (depth_conv): Sequential(
                (conv): Conv2d(240, 240, kernel_size=(5, 5), stride=(1, 1), padding=(2, 2), groups=240, bias=False)
                (bn): BatchNorm2d(240, eps=0.001, momentum=0.1, affine=True, track_running_stats=True)
                (act): ReLU6(inplace=True)
              )
              (point_linear): Sequential(
                (conv): Conv2d(240, 40, kernel_size=(1, 1), stride=(1, 1), bias=False)
                (bn): BatchNorm2d(40, eps=0.001, momentum=0.1, affine=True, track_running_stats=True)
              )
            )
            (4): ZeroLayer()
          )
        )
        (shortcut): IdentityLayer()
      )
      (7): MobileInvertedResidualBlock(
        (mobile_inverted_conv): MixedEdge(
          (candidate_ops): ModuleList(
            (0): MBInvertedConvLayer(
              (inverted_bottleneck): Sequential(
                (conv): Conv2d(40, 120, kernel_size=(1, 1), stride=(1, 1), bias=False)
                (bn): BatchNorm2d(120, eps=0.001, momentum=0.1, affine=True, track_running_stats=True)
                (act): ReLU6(inplace=True)
              )
              (depth_conv): Sequential(
                (conv): Conv2d(120, 120, kernel_size=(3, 3), stride=(2, 2), padding=(1, 1), groups=120, bias=False)
                (bn): BatchNorm2d(120, eps=0.001, momentum=0.1, affine=True, track_running_stats=True)
                (act): ReLU6(inplace=True)
              )
              (point_linear): Sequential(
                (conv): Conv2d(120, 80, kernel_size=(1, 1), stride=(1, 1), bias=False)
                (bn): BatchNorm2d(80, eps=0.001, momentum=0.1, affine=True, track_running_stats=True)
              )
            )
            (1): MBInvertedConvLayer(
              (inverted_bottleneck): Sequential(
                (conv): Conv2d(40, 240, kernel_size=(1, 1), stride=(1, 1), bias=False)
                (bn): BatchNorm2d(240, eps=0.001, momentum=0.1, affine=True, track_running_stats=True)
                (act): ReLU6(inplace=True)
              )
              (depth_conv): Sequential(
                (conv): Conv2d(240, 240, kernel_size=(3, 3), stride=(2, 2), padding=(1, 1), groups=240, bias=False)
                (bn): BatchNorm2d(240, eps=0.001, momentum=0.1, affine=True, track_running_stats=True)
                (act): ReLU6(inplace=True)
              )
              (point_linear): Sequential(
                (conv): Conv2d(240, 80, kernel_size=(1, 1), stride=(1, 1), bias=False)
                (bn): BatchNorm2d(80, eps=0.001, momentum=0.1, affine=True, track_running_stats=True)
              )
            )
            (2): MBInvertedConvLayer(
              (inverted_bottleneck): Sequential(
                (conv): Conv2d(40, 120, kernel_size=(1, 1), stride=(1, 1), bias=False)
                (bn): BatchNorm2d(120, eps=0.001, momentum=0.1, affine=True, track_running_stats=True)
                (act): ReLU6(inplace=True)
              )
              (depth_conv): Sequential(
                (conv): Conv2d(120, 120, kernel_size=(5, 5), stride=(2, 2), padding=(2, 2), groups=120, bias=False)
                (bn): BatchNorm2d(120, eps=0.001, momentum=0.1, affine=True, track_running_stats=True)
                (act): ReLU6(inplace=True)
              )
              (point_linear): Sequential(
                (conv): Conv2d(120, 80, kernel_size=(1, 1), stride=(1, 1), bias=False)
                (bn): BatchNorm2d(80, eps=0.001, momentum=0.1, affine=True, track_running_stats=True)
              )
            )
            (3): MBInvertedConvLayer(
              (inverted_bottleneck): Sequential(
                (conv): Conv2d(40, 240, kernel_size=(1, 1), stride=(1, 1), bias=False)
                (bn): BatchNorm2d(240, eps=0.001, momentum=0.1, affine=True, track_running_stats=True)
                (act): ReLU6(inplace=True)
              )
              (depth_conv): Sequential(
                (conv): Conv2d(240, 240, kernel_size=(5, 5), stride=(2, 2), padding=(2, 2), groups=240, bias=False)
                (bn): BatchNorm2d(240, eps=0.001, momentum=0.1, affine=True, track_running_stats=True)
                (act): ReLU6(inplace=True)
              )
              (point_linear): Sequential(
                (conv): Conv2d(240, 80, kernel_size=(1, 1), stride=(1, 1), bias=False)
                (bn): BatchNorm2d(80, eps=0.001, momentum=0.1, affine=True, track_running_stats=True)
              )
            )
          )
        )
      )
      (8-9): 2 x MobileInvertedResidualBlock(
        (mobile_inverted_conv): MixedEdge(
          (candidate_ops): ModuleList(
            (0): MBInvertedConvLayer(
              (inverted_bottleneck): Sequential(
                (conv): Conv2d(80, 240, kernel_size=(1, 1), stride=(1, 1), bias=False)
                (bn): BatchNorm2d(240, eps=0.001, momentum=0.1, affine=True, track_running_stats=True)
                (act): ReLU6(inplace=True)
              )
              (depth_conv): Sequential(
                (conv): Conv2d(240, 240, kernel_size=(3, 3), stride=(1, 1), padding=(1, 1), groups=240, bias=False)
                (bn): BatchNorm2d(240, eps=0.001, momentum=0.1, affine=True, track_running_stats=True)
                (act): ReLU6(inplace=True)
              )
              (point_linear): Sequential(
                (conv): Conv2d(240, 80, kernel_size=(1, 1), stride=(1, 1), bias=False)
                (bn): BatchNorm2d(80, eps=0.001, momentum=0.1, affine=True, track_running_stats=True)
              )
            )
            (1): MBInvertedConvLayer(
              (inverted_bottleneck): Sequential(
                (conv): Conv2d(80, 480, kernel_size=(1, 1), stride=(1, 1), bias=False)
                (bn): BatchNorm2d(480, eps=0.001, momentum=0.1, affine=True, track_running_stats=True)
                (act): ReLU6(inplace=True)
              )
              (depth_conv): Sequential(
                (conv): Conv2d(480, 480, kernel_size=(3, 3), stride=(1, 1), padding=(1, 1), groups=480, bias=False)
                (bn): BatchNorm2d(480, eps=0.001, momentum=0.1, affine=True, track_running_stats=True)
                (act): ReLU6(inplace=True)
              )
              (point_linear): Sequential(
                (conv): Conv2d(480, 80, kernel_size=(1, 1), stride=(1, 1), bias=False)
                (bn): BatchNorm2d(80, eps=0.001, momentum=0.1, affine=True, track_running_stats=True)
              )
            )
            (2): MBInvertedConvLayer(
              (inverted_bottleneck): Sequential(
                (conv): Conv2d(80, 240, kernel_size=(1, 1), stride=(1, 1), bias=False)
                (bn): BatchNorm2d(240, eps=0.001, momentum=0.1, affine=True, track_running_stats=True)
                (act): ReLU6(inplace=True)
              )
              (depth_conv): Sequential(
                (conv): Conv2d(240, 240, kernel_size=(5, 5), stride=(1, 1), padding=(2, 2), groups=240, bias=False)
                (bn): BatchNorm2d(240, eps=0.001, momentum=0.1, affine=True, track_running_stats=True)
                (act): ReLU6(inplace=True)
              )
              (point_linear): Sequential(
                (conv): Conv2d(240, 80, kernel_size=(1, 1), stride=(1, 1), bias=False)
                (bn): BatchNorm2d(80, eps=0.001, momentum=0.1, affine=True, track_running_stats=True)
              )
            )
            (3): MBInvertedConvLayer(
              (inverted_bottleneck): Sequential(
                (conv): Conv2d(80, 480, kernel_size=(1, 1), stride=(1, 1), bias=False)
                (bn): BatchNorm2d(480, eps=0.001, momentum=0.1, affine=True, track_running_stats=True)
                (act): ReLU6(inplace=True)
              )
              (depth_conv): Sequential(
                (conv): Conv2d(480, 480, kernel_size=(5, 5), stride=(1, 1), padding=(2, 2), groups=480, bias=False)
                (bn): BatchNorm2d(480, eps=0.001, momentum=0.1, affine=True, track_running_stats=True)
                (act): ReLU6(inplace=True)
              )
              (point_linear): Sequential(
                (conv): Conv2d(480, 80, kernel_size=(1, 1), stride=(1, 1), bias=False)
                (bn): BatchNorm2d(80, eps=0.001, momentum=0.1, affine=True, track_running_stats=True)
              )
            )
            (4): ZeroLayer()
          )
        )
        (shortcut): IdentityLayer()
      )
      (10): MobileInvertedResidualBlock(
        (mobile_inverted_conv): MixedEdge(
          (candidate_ops): ModuleList(
            (0): MBInvertedConvLayer(
              (inverted_bottleneck): Sequential(
                (conv): Conv2d(80, 240, kernel_size=(1, 1), stride=(1, 1), bias=False)
                (bn): BatchNorm2d(240, eps=0.001, momentum=0.1, affine=True, track_running_stats=True)
                (act): ReLU6(inplace=True)
              )
              (depth_conv): Sequential(
                (conv): Conv2d(240, 240, kernel_size=(3, 3), stride=(1, 1), padding=(1, 1), groups=240, bias=False)
                (bn): BatchNorm2d(240, eps=0.001, momentum=0.1, affine=True, track_running_stats=True)
                (act): ReLU6(inplace=True)
              )
              (point_linear): Sequential(
                (conv): Conv2d(240, 96, kernel_size=(1, 1), stride=(1, 1), bias=False)
                (bn): BatchNorm2d(96, eps=0.001, momentum=0.1, affine=True, track_running_stats=True)
              )
            )
            (1): MBInvertedConvLayer(
              (inverted_bottleneck): Sequential(
                (conv): Conv2d(80, 480, kernel_size=(1, 1), stride=(1, 1), bias=False)
                (bn): BatchNorm2d(480, eps=0.001, momentum=0.1, affine=True, track_running_stats=True)
                (act): ReLU6(inplace=True)
              )
              (depth_conv): Sequential(
                (conv): Conv2d(480, 480, kernel_size=(3, 3), stride=(1, 1), padding=(1, 1), groups=480, bias=False)
                (bn): BatchNorm2d(480, eps=0.001, momentum=0.1, affine=True, track_running_stats=True)
                (act): ReLU6(inplace=True)
              )
              (point_linear): Sequential(
                (conv): Conv2d(480, 96, kernel_size=(1, 1), stride=(1, 1), bias=False)
                (bn): BatchNorm2d(96, eps=0.001, momentum=0.1, affine=True, track_running_stats=True)
              )
            )
            (2): MBInvertedConvLayer(
              (inverted_bottleneck): Sequential(
                (conv): Conv2d(80, 240, kernel_size=(1, 1), stride=(1, 1), bias=False)
                (bn): BatchNorm2d(240, eps=0.001, momentum=0.1, affine=True, track_running_stats=True)
                (act): ReLU6(inplace=True)
              )
              (depth_conv): Sequential(
                (conv): Conv2d(240, 240, kernel_size=(5, 5), stride=(1, 1), padding=(2, 2), groups=240, bias=False)
                (bn): BatchNorm2d(240, eps=0.001, momentum=0.1, affine=True, track_running_stats=True)
                (act): ReLU6(inplace=True)
              )
              (point_linear): Sequential(
                (conv): Conv2d(240, 96, kernel_size=(1, 1), stride=(1, 1), bias=False)
                (bn): BatchNorm2d(96, eps=0.001, momentum=0.1, affine=True, track_running_stats=True)
              )
            )
            (3): MBInvertedConvLayer(
              (inverted_bottleneck): Sequential(
                (conv): Conv2d(80, 480, kernel_size=(1, 1), stride=(1, 1), bias=False)
                (bn): BatchNorm2d(480, eps=0.001, momentum=0.1, affine=True, track_running_stats=True)
                (act): ReLU6(inplace=True)
              )
              (depth_conv): Sequential(
                (conv): Conv2d(480, 480, kernel_size=(5, 5), stride=(1, 1), padding=(2, 2), groups=480, bias=False)
                (bn): BatchNorm2d(480, eps=0.001, momentum=0.1, affine=True, track_running_stats=True)
                (act): ReLU6(inplace=True)
              )
              (point_linear): Sequential(
                (conv): Conv2d(480, 96, kernel_size=(1, 1), stride=(1, 1), bias=False)
                (bn): BatchNorm2d(96, eps=0.001, momentum=0.1, affine=True, track_running_stats=True)
              )
            )
          )
        )
      )
      (11-12): 2 x MobileInvertedResidualBlock(
        (mobile_inverted_conv): MixedEdge(
          (candidate_ops): ModuleList(
            (0): MBInvertedConvLayer(
              (inverted_bottleneck): Sequential(
                (conv): Conv2d(96, 288, kernel_size=(1, 1), stride=(1, 1), bias=False)
                (bn): BatchNorm2d(288, eps=0.001, momentum=0.1, affine=True, track_running_stats=True)
                (act): ReLU6(inplace=True)
              )
              (depth_conv): Sequential(
                (conv): Conv2d(288, 288, kernel_size=(3, 3), stride=(1, 1), padding=(1, 1), groups=288, bias=False)
                (bn): BatchNorm2d(288, eps=0.001, momentum=0.1, affine=True, track_running_stats=True)
                (act): ReLU6(inplace=True)
              )
              (point_linear): Sequential(
                (conv): Conv2d(288, 96, kernel_size=(1, 1), stride=(1, 1), bias=False)
                (bn): BatchNorm2d(96, eps=0.001, momentum=0.1, affine=True, track_running_stats=True)
              )
            )
            (1): MBInvertedConvLayer(
              (inverted_bottleneck): Sequential(
                (conv): Conv2d(96, 576, kernel_size=(1, 1), stride=(1, 1), bias=False)
                (bn): BatchNorm2d(576, eps=0.001, momentum=0.1, affine=True, track_running_stats=True)
                (act): ReLU6(inplace=True)
              )
              (depth_conv): Sequential(
                (conv): Conv2d(576, 576, kernel_size=(3, 3), stride=(1, 1), padding=(1, 1), groups=576, bias=False)
                (bn): BatchNorm2d(576, eps=0.001, momentum=0.1, affine=True, track_running_stats=True)
                (act): ReLU6(inplace=True)
              )
              (point_linear): Sequential(
                (conv): Conv2d(576, 96, kernel_size=(1, 1), stride=(1, 1), bias=False)
                (bn): BatchNorm2d(96, eps=0.001, momentum=0.1, affine=True, track_running_stats=True)
              )
            )
            (2): MBInvertedConvLayer(
              (inverted_bottleneck): Sequential(
                (conv): Conv2d(96, 288, kernel_size=(1, 1), stride=(1, 1), bias=False)
                (bn): BatchNorm2d(288, eps=0.001, momentum=0.1, affine=True, track_running_stats=True)
                (act): ReLU6(inplace=True)
              )
              (depth_conv): Sequential(
                (conv): Conv2d(288, 288, kernel_size=(5, 5), stride=(1, 1), padding=(2, 2), groups=288, bias=False)
                (bn): BatchNorm2d(288, eps=0.001, momentum=0.1, affine=True, track_running_stats=True)
                (act): ReLU6(inplace=True)
              )
              (point_linear): Sequential(
                (conv): Conv2d(288, 96, kernel_size=(1, 1), stride=(1, 1), bias=False)
                (bn): BatchNorm2d(96, eps=0.001, momentum=0.1, affine=True, track_running_stats=True)
              )
            )
            (3): MBInvertedConvLayer(
              (inverted_bottleneck): Sequential(
                (conv): Conv2d(96, 576, kernel_size=(1, 1), stride=(1, 1), bias=False)
                (bn): BatchNorm2d(576, eps=0.001, momentum=0.1, affine=True, track_running_stats=True)
                (act): ReLU6(inplace=True)
              )
              (depth_conv): Sequential(
                (conv): Conv2d(576, 576, kernel_size=(5, 5), stride=(1, 1), padding=(2, 2), groups=576, bias=False)
                (bn): BatchNorm2d(576, eps=0.001, momentum=0.1, affine=True, track_running_stats=True)
                (act): ReLU6(inplace=True)
              )
              (point_linear): Sequential(
                (conv): Conv2d(576, 96, kernel_size=(1, 1), stride=(1, 1), bias=False)
                (bn): BatchNorm2d(96, eps=0.001, momentum=0.1, affine=True, track_running_stats=True)
              )
            )
            (4): ZeroLayer()
          )
        )
        (shortcut): IdentityLayer()
      )
    )
    (feature_mix_layer): ConvLayer(
      (conv): Conv2d(96, 512, kernel_size=(1, 1), stride=(1, 1), bias=False)
      (bn): BatchNorm2d(512, eps=0.001, momentum=0.1, affine=True, track_running_stats=True)
      (act): ReLU6(inplace=True)
    )
    (global_avg_pooling): AdaptiveAvgPool2d(output_size=1)
    (classifier): LinearLayer(
      (linear): Linear(in_features=512, out_features=200, bias=True)
    )
  )
)
Total training params: 2.06M
Total FLOPs: 12.3M
=> loading checkpoint 'tiny_origin/checkpoint/checkpoint.pth.tar'
=> loaded checkpoint 'tiny_origin/checkpoint/checkpoint.pth.tar'
Found Get key='Conv-input:64x64x3-output:32x32x32' of proc='cpu_b', latency = 0.380256
Found Get key='Conv-input:64x64x3-output:32x32x32' of proc='cpu_s', latency = 0.421474
…
