PyramidTreeNet(
  (blocks): ModuleList(
    (0): TransitionBlock(
      (layers): ModuleList(
        (0): ConvLayer(
          (conv): Conv2d(3, 16, kernel_size=(3, 3), stride=(1, 1), padding=(1, 1), bias=False)
        )
        (1): IdentityLayer(
          (bn): BatchNorm2d(16, eps=1e-05, momentum=0.1, affine=True, track_running_stats=True)
        )
      )
    )
    (1): ResidualTreeBlock(
      (in_bottle): ConvLayer(
        (bn): BatchNorm2d(16, eps=1e-05, momentum=0.1, affine=True, track_running_stats=True)
        (conv): Conv2d(16, 18, kernel_size=(1, 1), stride=(1, 1), bias=False)
      )
      (out_bottle): ConvLayer(
        (bn): BatchNorm2d(18, eps=1e-05, momentum=0.1, affine=True, track_running_stats=True)
        (activation): ReLU(inplace=True)
        (conv): Conv2d(18, 72, kernel_size=(1, 1), stride=(1, 1), bias=False)
      )
      (shortcut): IdentityLayer()
      (cell): TreeNode(
        (edges): ModuleList(
          (0): ConvLayer(
            (bn): BatchNorm2d(18, eps=1e-05, momentum=0.1, affine=True, track_running_stats=True)
            (activation): ReLU(inplace=True)
            (conv): Conv2d(18, 36, kernel_size=(3, 3), stride=(1, 1), padding=(1, 1), groups=2, bias=False)
          )
        )
        (child_nodes): ModuleList(
          (0): TreeNode(
            (edges): ModuleList(
              (0-1): 2 x IdentityLayer()
            )
            (child_nodes): ModuleList(
              (0): TreeNode(
                (edges): ModuleList(
                  (0): DepthConvLayer(
                    (bn): BatchNorm2d(18, eps=1e-05, momentum=0.1, affine=True, track_running_stats=True)
                    (activation): ReLU(inplace=True)
                    (depth_conv): Conv2d(18, 18, kernel_size=(7, 7), stride=(1, 1), padding=(3, 3), groups=18, bias=False)
                    (point_conv): Conv2d(18, 18, kernel_size=(1, 1), stride=(1, 1), bias=False)
                  )
                  (1): PoolingLayer(
                    (pool): MaxPool2d(kernel_size=3, stride=1, padding=1, dilation=1, ceil_mode=False)
                  )
                )
                (child_nodes): ModuleList(
                  (0): TreeNode(
                    (edges): ModuleList(
                      (0): DepthConvLayer(
                        (bn): BatchNorm2d(18, eps=1e-05, momentum=0.1, affine=True, track_running_stats=True)
                        (activation): ReLU(inplace=True)
                        (depth_conv): Conv2d(18, 18, kernel_size=(3, 3), stride=(1, 1), padding=(2, 2), dilation=(2, 2), groups=18, bias=False)
                        (point_conv): Conv2d(18, 18, kernel_size=(1, 1), stride=(1, 1), bias=False)
                      )
                      (1): IdentityLayer()
                    )
                    (child_nodes): ModuleList(
                      (0-1): 2 x None
                    )
                    (branch_bns): ModuleList(
                      (0-1): 2 x None
                    )
                  )
                  (1): TreeNode(
                    (edges): ModuleList(
                      (0): DepthConvLayer(
                        (bn): BatchNorm2d(18, eps=1e-05, momentum=0.1, affine=True, track_running_stats=True)
                        (activation): ReLU(inplace=True)
                        (depth_conv): Conv2d(18, 18, kernel_size=(7, 7), stride=(1, 1), padding=(3, 3), groups=18, bias=False)
                        (point_conv): Conv2d(18, 18, kernel_size=(1, 1), stride=(1, 1), bias=False)
                      )
                      (1): PoolingLayer(
                        (pool): MaxPool2d(kernel_size=3, stride=1, padding=1, dilation=1, ceil_mode=False)
                      )
                    )
                    (child_nodes): ModuleList(
                      (0-1): 2 x None
                    )
                    (branch_bns): ModuleList(
                      (0-1): 2 x None
                    )
                  )
                )
                (branch_bns): ModuleList(
                  (0-1): 2 x None
                )
              )
              (1): TreeNode(
                (edges): ModuleList(
                  (0): DepthConvLayer(
                    (bn): BatchNorm2d(18, eps=1e-05, momentum=0.1, affine=True, track_running_stats=True)
                    (activation): ReLU(inplace=True)
                    (depth_conv): Conv2d(18, 18, kernel_size=(5, 5), stride=(1, 1), padding=(2, 2), groups=18, bias=False)
                    (point_conv): Conv2d(18, 18, kernel_size=(1, 1), stride=(1, 1), bias=False)
                  )
                  (1): DepthConvLayer(
                    (bn): BatchNorm2d(18, eps=1e-05, momentum=0.1, affine=True, track_running_stats=True)
                    (activation): ReLU(inplace=True)
                    (depth_conv): Conv2d(18, 18, kernel_size=(3, 3), stride=(1, 1), padding=(2, 2), dilation=(2, 2), groups=18, bias=False)
                    (point_conv): Conv2d(18, 18, kernel_size=(1, 1), stride=(1, 1), bias=False)
                  )
                )
                (child_nodes): ModuleList(
                  (0): TreeNode(
                    (edges): ModuleList(
                      (0-1): 2 x DepthConvLayer(
                        (bn): BatchNorm2d(18, eps=1e-05, momentum=0.1, affine=True, track_running_stats=True)
                        (activation): ReLU(inplace=True)
                        (depth_conv): Conv2d(18, 18, kernel_size=(5, 5), stride=(1, 1), padding=(2, 2), groups=18, bias=False)
                        (point_conv): Conv2d(18, 18, kernel_size=(1, 1), stride=(1, 1), bias=False)
                      )
                    )
                    (child_nodes): ModuleList(
                      (0-1): 2 x None
                    )
                    (branch_bns): ModuleList(
                      (0-1): 2 x None
                    )
                  )
                  (1): TreeNode(
                    (edges): ModuleList(
                      (0-1): 2 x DepthConvLayer(
                        (bn): BatchNorm2d(18, eps=1e-05, momentum=0.1, affine=True, track_running_stats=True)
                        (activation): ReLU(inplace=True)
                        (depth_conv): Conv2d(18, 18, kernel_size=(7, 7), stride=(1, 1), padding=(3, 3), groups=18, bias=False)
                        (point_conv): Conv2d(18, 18, kernel_size=(1, 1), stride=(1, 1), bias=False)
                      )
                    )
                    (child_nodes): ModuleList(
                      (0-1): 2 x None
                    )
                    (branch_bns): ModuleList(
                      (0-1): 2 x None
                    )
                  )
                )
                (branch_bns): ModuleList(
                  (0-1): 2 x None
                )
              )
            )
            (branch_bns): ModuleList(
              (0-1): 2 x BatchNorm2d(18, eps=1e-05, momentum=0.1, affine=True, track_running_stats=True)
            )
          )
        )
        (branch_bns): ModuleList(
          (0): None
        )
      )
      (final_bn): BatchNorm2d(72, eps=1e-05, momentum=0.1, affine=True, track_running_stats=True)
    )
    (2): ResidualTreeBlock(
      (in_bottle): ConvLayer(
        (bn): BatchNorm2d(72, eps=1e-05, momentum=0.1, affine=True, track_running_stats=True)
        (conv): Conv2d(72, 18, kernel_size=(1, 1), stride=(1, 1), bias=False)
      )
      (out_bottle): ConvLayer(
        (bn): BatchNorm2d(18, eps=1e-05, momentum=0.1, affine=True, track_running_stats=True)
        (activation): ReLU(inplace=True)
        (conv): Conv2d(18, 72, kernel_size=(1, 1), stride=(1, 1), bias=False)
      )
      (shortcut): IdentityLayer()
      (cell): TreeNode(
        (edges): ModuleList(
          (0): ConvLayer(
            (bn): BatchNorm2d(18, eps=1e-05, momentum=0.1, affine=True, track_running_stats=True)
            (activation): ReLU(inplace=True)
            (conv): Conv2d(18, 36, kernel_size=(3, 3), stride=(1, 1), padding=(1, 1), groups=2, bias=False)
          )
        )
        (child_nodes): ModuleList(
          (0): TreeNode(
            (edges): ModuleList(
              (0-1): 2 x IdentityLayer()
            )
            (child_nodes): ModuleList(
              (0): TreeNode(
                (edges): ModuleList(
                  (0): PoolingLayer(
                    (pool): AvgPool2d(kernel_size=3, stride=1, padding=1)
…
                  (0): TreeNode(
                    (edges): ModuleList(
                      (0-1): 2 x PoolingLayer(
                        (pool): AvgPool2d(kernel_size=3, stride=1, padding=1)
                      )
                    )
                    (child_nodes): ModuleList(
                      (0-1): 2 x None
                    )
                    (branch_bns): ModuleList(
                      (0-1): 2 x None
                    )
                  )
                  (1): TreeNode(
                    (edges): ModuleList(
                      (0): DepthConvLayer(
                        (bn): BatchNorm2d(18, eps=1e-05, momentum=0.1, affine=True, track_running_stats=True)
                        (activation): ReLU(inplace=True)
                        (depth_conv): Conv2d(18, 18, kernel_size=(3, 3), stride=(1, 1), padding=(1, 1), groups=18, bias=False)
                        (point_conv): Conv2d(18, 18, kernel_size=(1, 1), stride=(1, 1), bias=False)
                      )
                      (1): IdentityLayer()
                    )
                    (child_nodes): ModuleList(
                      (0-1): 2 x None
                    )
                    (branch_bns): ModuleList(
                      (0-1): 2 x None
                    )
                  )
                )
                (branch_bns): ModuleList(
                  (0-1): 2 x None
                )
              )
              (1): TreeNode(
                (edges): ModuleList(
                  (0): PoolingLayer(
                    (pool): MaxPool2d(kernel_size=3, stride=1, padding=1, dilation=1, ceil_mode=False)
                  )
                  (1): DepthConvLayer(
                    (bn): BatchNorm2d(18, eps=1e-05, momentum=0.1, affine=True, track_running_stats=True)
                    (activation): ReLU(inplace=True)
                    (depth_conv): Conv2d(18, 18, kernel_size=(7, 7), stride=(1, 1), padding=(3, 3), groups=18, bias=False)
                    (point_conv): Conv2d(18, 18, kernel_size=(1, 1), stride=(1, 1), bias=False)
                  )
                )
                (child_nodes): ModuleList(
                  (0): TreeNode(
                    (edges): ModuleList(
                      (0): DepthConvLayer(
                        (bn): BatchNorm2d(18, eps=1e-05, momentum=0.1, affine=True, track_running_stats=True)
                        (activation): ReLU(inplace=True)
                        (depth_conv): Conv2d(18, 18, kernel_size=(3, 3), stride=(1, 1), padding=(2, 2), dilation=(2, 2), groups=18, bias=False)
                        (point_conv): Conv2d(18, 18, kernel_size=(1, 1), stride=(1, 1), bias=False)
                      )
                      (1): IdentityLayer()
                    )
                    (child_nodes): ModuleList(
                      (0-1): 2 x None
                    )
                    (branch_bns): ModuleList(
                      (0-1): 2 x None
                    )
                  )
                  (1): TreeNode(
                    (edges): ModuleList(
                      (0-1): 2 x DepthConvLayer(
                        (bn): BatchNorm2d(18, eps=1e-05, momentum=0.1, affine=True, track_running_stats=True)
                        (activation): ReLU(inplace=True)
                        (depth_conv): Conv2d(18, 18, kernel_size=(3, 3), stride=(1, 1), padding=(2, 2), dilation=(2, 2), groups=18, bias=False)
                        (point_conv): Conv2d(18, 18, kernel_size=(1, 1), stride=(1, 1), bias=False)
                      )
                    )
                    (child_nodes): ModuleList(
                      (0-1): 2 x None
                    )
                    (branch_bns): ModuleList(
                      (0-1): 2 x None
                    )
                  )
                )
                (branch_bns): ModuleList(
                  (0-1): 2 x None
                )
              )
            )
            (branch_bns): ModuleList(
              (0-1): 2 x BatchNorm2d(18, eps=1e-05, momentum=0.1, affine=True, track_running_stats=True)
            )
          )
        )
        (branch_bns): ModuleList(
          (0): None
        )
      )
      (final_bn): BatchNorm2d(72, eps=1e-05, momentum=0.1, affine=True, track_running_stats=True)
    )
    (3): ResidualTreeBlock(
      (in_bottle): ConvLayer(
        (bn): BatchNorm2d(72, eps=1e-05, momentum=0.1, affine=True, track_running_stats=True)
        (conv): Conv2d(72, 20, kernel_size=(1, 1), stride=(1, 1), bias=False)
      )
      (out_bottle): ConvLayer(
        (bn): BatchNorm2d(20, eps=1e-05, momentum=0.1, affine=True, track_running_stats=True)
        (activation): ReLU(inplace=True)
        (conv): Conv2d(20, 80, kernel_size=(1, 1), stride=(1, 1), bias=False)
      )
      (shortcut): IdentityLayer()
      (cell): TreeNode(
        (edges): ModuleList(
          (0): ConvLayer(
            (bn): BatchNorm2d(20, eps=1e-05, momentum=0.1, affine=True, track_running_stats=True)
            (activation): ReLU(inplace=True)
            (conv): Conv2d(20, 40, kernel_size=(3, 3), stride=(1, 1), padding=(1, 1), groups=2, bias=False)
          )
        )
        (child_nodes): ModuleList(
          (0): TreeNode(
            (edges): ModuleList(
              (0-1): 2 x IdentityLayer()
            )
            (child_nodes): ModuleList(
              (0): TreeNode(
                (edges): ModuleList(
                  (0): DepthConvLayer(
                    (bn): BatchNorm2d(20, eps=1e-05, momentum=0.1, affine=True, track_running_stats=True)
                    (activation): ReLU(inplace=True)
                    (depth_conv): Conv2d(20, 20, kernel_size=(7, 7), stride=(1, 1), padding=(3, 3), groups=20, bias=False)
                    (point_conv): Conv2d(20, 20, kernel_size=(1, 1), stride=(1, 1), bias=False)
                  )
                  (1): IdentityLayer()
                )
                (child_nodes): ModuleList(
                  (0): TreeNode(
                    (edges): ModuleList(
                      (0): DepthConvLayer(
                        (bn): BatchNorm2d(20, eps=1e-05, momentum=0.1, affine=True, track_running_stats=True)
                        (activation): ReLU(inplace=True)
                        (depth_conv): Conv2d(20, 20, kernel_size=(3, 3), stride=(1, 1), padding=(1, 1), groups=20, bias=False)
                        (point_conv): Conv2d(20, 20, kernel_size=(1, 1), stride=(1, 1), bias=False)
                      )
                      (1): PoolingLayer(
                        (pool): AvgPool2d(kernel_size=3, stride=1, padding=1)
                      )
                    )
                    (child_nodes): ModuleList(
                      (0-1): 2 x None
                    )
                    (branch_bns): ModuleList(
                      (0-1): 2 x None
                    )
                  )
                  (1): TreeNode(
                    (edges): ModuleList(
                      (0): DepthConvLayer(
                        (bn): BatchNorm2d(20, eps=1e-05, momentum=0.1, affine=True, track_running_stats=True)
                        (activation): ReLU(inplace=True)
                        (depth_conv): Conv2d(20, 20, kernel_size=(5, 5), stride=(1, 1), padding=(2, 2), groups=20, bias=False)
                        (point_conv): Conv2d(20, 20, kernel_size=(1, 1), stride=(1, 1), bias=False)
                      )
                      (1): PoolingLayer(
                        (pool): AvgPool2d(kernel_size=3, stride=1, padding=1)
                      )
                    )
                    (child_nodes): ModuleList(
                      (0-1): 2 x None
                    )
                    (branch_bns): ModuleList(
                      (0-1): 2 x None
                    )
                  )
                )
                (branch_bns): ModuleList(
                  (0-1): 2 x None
                )
              )
              (1): TreeNode(
                (edges): ModuleList(
                  (0): DepthConvLayer(
                    (bn): BatchNorm2d(20, eps=1e-05, momentum=0.1, affine=True, track_running_stats=True)
                    (activation): ReLU(inplace=True)
                    (depth_conv): Conv2d(20, 20, kernel_size=(3, 3), stride=(1, 1), padding=(1, 1), groups=20, bias=False)
                    (point_conv): Conv2d(20, 20, kernel_size=(1, 1), stride=(1, 1), bias=False)
                  )
                  (1): DepthConvLayer(
                    (bn): BatchNorm2d(20, eps=1e-05, momentum=0.1, affine=True, track_running_stats=True)
                    (activation): ReLU(inplace=True)
                    (depth_conv): Conv2d(20, 20, kernel_size=(3, 3), stride=(1, 1), padding=(2, 2), dilation=(2, 2), groups=20, bias=False)
                    (point_conv): Conv2d(20, 20, kernel_size=(1, 1), stride=(1, 1), bias=False)
                  )
                )
                (child_nodes): ModuleList(
                  (0): TreeNode(
                    (edges): ModuleList(
                      (0): DepthConvLayer(
                        (bn): BatchNorm2d(20, eps=1e-05, momentum=0.1, affine=True, track_running_stats=True)
                        (activation): ReLU(inplace=True)
                        (depth_conv): Conv2d(20, 20, kernel_size=(3, 3), stride=(1, 1), padding=(1, 1), groups=20, bias=False)
                        (point_conv): Conv2d(20, 20, kernel_size=(1, 1), stride=(1, 1), bias=False)
                      )
                      (1): PoolingLayer(
                        (pool): AvgPool2d(kernel_size=3, stride=1, padding=1)
                      )
                    )
                    (child_nodes): ModuleList(
                      (0-1): 2 x None
                    )
                    (branch_bns): ModuleList(
                      (0-1): 2 x None
                    )
                  )
                  (1): TreeNode(
                    (edges): ModuleList(
                      (0): DepthConvLayer(
                        (bn): BatchNorm2d(20, eps=1e-05, momentum=0.1, affine=True, track_running_stats=True)
                        (activation): ReLU(inplace=True)
                        (depth_conv): Conv2d(20, 20, kernel_size=(3, 3), stride=(1, 1), padding=(2, 2), dilation=(2, 2), groups=20, bias=False)
                        (point_conv): Conv2d(20, 20, kernel_size=(1, 1), stride=(1, 1), bias=False)
                      )
                      (1): DepthConvLayer(
                        (bn): BatchNorm2d(20, eps=1e-05, momentum=0.1, affine=True, track_running_stats=True)
                        (activation): ReLU(inplace=True)
                        (depth_conv): Conv2d(20, 20, kernel_size=(5, 5), stride=(1, 1), padding=(2, 2), groups=20, bias=False)
                        (point_conv): Conv2d(20, 20, kernel_size=(1, 1), stride=(1, 1), bias=False)
                      )
                    )
                    (child_nodes): ModuleList(
                      (0-1): 2 x None
                    )
                    (branch_bns): ModuleList(
                      (0-1): 2 x None
                    )
                  )
                )
                (branch_bns): ModuleList(
                  (0-1): 2 x None
                )
              )
            )
            (branch_bns): ModuleList(
              (0-1): 2 x BatchNorm2d(20, eps=1e-05, momentum=0.1, affine=True, track_running_stats=True)
            )
          )
        )
        (branch_bns): ModuleList(
          (0): None
        )
      )
      (final_bn): BatchNorm2d(80, eps=1e-05, momentum=0.1, affine=True, track_running_stats=True)
    )
    (4): ResidualTreeBlock(
      (in_bottle): ConvLayer(
        (bn): BatchNorm2d(80, eps=1e-05, momentum=0.1, affine=True, track_running_stats=True)
        (conv): Conv2d(80, 22, kernel_size=(1, 1), stride=(1, 1), bias=False)
      )
      (out_bottle): ConvLayer(
        (bn): BatchNorm2d(22, eps=1e-05, momentum=0.1, affine=True, track_running_stats=True)
        (activation): ReLU(inplace=True)
        (conv): Conv2d(22, 88, kernel_size=(1, 1), stride=(1, 1), bias=False)
      )
      (shortcut): IdentityLayer()
      (cell): TreeNode(
        (edges): ModuleList(
          (0): ConvLayer(
            (bn): BatchNorm2d(22, eps=1e-05, momentum=0.1, affine=True, track_running_stats=True)
            (activation): ReLU(inplace=True)
            (conv): Conv2d(22, 44, kernel_size=(3, 3), stride=(1, 1), padding=(1, 1), groups=2, bias=False)
          )
        )
        (child_nodes): ModuleList(
          (0): TreeNode(
            (edges): ModuleList(
              (0-1): 2 x IdentityLayer()
            )
            (child_nodes): ModuleList(
              (0): TreeNode(
                (edges): ModuleList(
                  (0): PoolingLayer(
                    (pool): AvgPool2d(kernel_size=3, stride=1, padding=1)
                  )
                  (1): DepthConvLayer(
                    (bn): BatchNorm2d(22, eps=1e-05, momentum=0.1, affine=True, track_running_stats=True)
                    (activation): ReLU(inplace=True)
                    (depth_conv): Conv2d(22, 22, kernel_size=(5, 5), stride=(1, 1), padding=(2, 2), groups=22, bias=False)
                    (point_conv): Conv2d(22, 22, kernel_size=(1, 1), stride=(1, 1), bias=False)
                  )
                )
                (child_nodes): ModuleList(
                  (0): TreeNode(
                    (edges): ModuleList(
                      (0): DepthConvLayer(
                        (bn): BatchNorm2d(22, eps=1e-05, momentum=0.1, affine=True, track_running_stats=True)
                        (activation): ReLU(inplace=True)
                        (depth_conv): Conv2d(22, 22, kernel_size=(5, 5), stride=(1, 1), padding=(2, 2), groups=22, bias=False)
                        (point_conv): Conv2d(22, 22, kernel_size=(1, 1), stride=(1, 1), bias=False)
                      )
                      (1): DepthConvLayer(
                        (bn): BatchNorm2d(22, eps=1e-05, momentum=0.1, affine=True, track_running_stats=True)
                        (activation): ReLU(inplace=True)
                        (depth_conv): Conv2d(22, 22, kernel_size=(3, 3), stride=(1, 1), padding=(2, 2), dilation=(2, 2), groups=22, bias=False)
                        (point_conv): Conv2d(22, 22, kernel_size=(1, 1), stride=(1, 1), bias=False)
                      )
                    )
                    (child_nodes): ModuleList(
                      (0-1): 2 x None
                    )
                    (branch_bns): ModuleList(
                      (0-1): 2 x None
                    )
                  )
                  (1): TreeNode(
                    (edges): ModuleList(
                      (0): DepthConvLayer(
                        (bn): BatchNorm2d(22, eps=1e-05, momentum=0.1, affine=True, track_running_stats=True)
                        (activation): ReLU(inplace=True)
                        (depth_conv): Conv2d(22, 22, kernel_size=(3, 3), stride=(1, 1), padding=(1, 1), groups=22, bias=False)
                        (point_conv): Conv2d(22, 22, kernel_size=(1, 1), stride=(1, 1), bias=False)
                      )
                      (1): DepthConvLayer(
                        (bn): BatchNorm2d(22, eps=1e-05, momentum=0.1, affine=True, track_running_stats=True)
                        (activation): ReLU(inplace=True)
                        (depth_conv): Conv2d(22, 22, kernel_size=(3, 3), stride=(1, 1), padding=(2, 2), dilation=(2, 2), groups=22, bias=False)
                        (point_conv): Conv2d(22, 22, kernel_size=(1, 1), stride=(1, 1), bias=False)
                      )
                    )
                    (child_nodes): ModuleList(
                      (0-1): 2 x None
                    )
                    (branch_bns): ModuleList(
                      (0-1): 2 x None
                    )
                  )
                )
                (branch_bns): ModuleList(
                  (0-1): 2 x None
                )
              )
              (1): TreeNode(
                (edges): ModuleList(
                  (0): DepthConvLayer(
                    (bn): BatchNorm2d(22, eps=1e-05, momentum=0.1, affine=True, track_running_stats=True)
                    (activation): ReLU(inplace=True)
                    (depth_conv): Conv2d(22, 22, kernel_size=(3, 3), stride=(1, 1), padding=(2, 2), dilation=(2, 2), groups=22, bias=False)
                    (point_conv): Conv2d(22, 22, kernel_size=(1, 1), stride=(1, 1), bias=False)
                  )
                  (1): DepthConvLayer(
                    (bn): BatchNorm2d(22, eps=1e-05, momentum=0.1, affine=True, track_running_stats=True)
                    (activation): ReLU(inplace=True)
                    (depth_conv): Conv2d(22, 22, kernel_size=(7, 7), stride=(1, 1), padding=(3, 3), groups=22, bias=False)
                    (point_conv): Conv2d(22, 22, kernel_size=(1, 1), stride=(1, 1), bias=False)
                  )
                )
                (child_nodes): ModuleList(
                  (0): TreeNode(
                    (edges): ModuleList(
                      (0): DepthConvLayer(
                        (bn): BatchNorm2d(22, eps=1e-05, momentum=0.1, affine=True, track_running_stats=True)
                        (activation): ReLU(inplace=True)
                        (depth_conv): Conv2d(22, 22, kernel_size=(7, 7), stride=(1, 1), padding=(3, 3), groups=22, bias=False)
                        (point_conv): Conv2d(22, 22, kernel_size=(1, 1), stride=(1, 1), bias=False)
                      )
                      (1): DepthConvLayer(
                        (bn): BatchNorm2d(22, eps=1e-05, momentum=0.1, affine=True, track_running_stats=True)
                        (activation): ReLU(inplace=True)
                        (depth_conv): Conv2d(22, 22, kernel_size=(3, 3), stride=(1, 1), padding=(1, 1), groups=22, bias=False)
                        (point_conv): Conv2d(22, 22, kernel_size=(1, 1), stride=(1, 1), bias=False)
                      )
                    )
                    (child_nodes): ModuleList(
                      (0-1): 2 x None
                    )
                    (branch_bns): ModuleList(
                      (0-1): 2 x None
                    )
                  )
                  (1): TreeNode(
                    (edges): ModuleList(
                      (0): IdentityLayer()
                      (1): DepthConvLayer(
                        (bn): BatchNorm2d(22, eps=1e-05, momentum=0.1, affine=True, track_running_stats=True)
                        (activation): ReLU(inplace=True)
                        (depth_conv): Conv2d(22, 22, kernel_size=(7, 7), stride=(1, 1), padding=(3, 3), groups=22, bias=False)
                        (point_conv): Conv2d(22, 22, kernel_size=(1, 1), stride=(1, 1), bias=False)
                      )
                    )
                    (child_nodes): ModuleList(
                      (0-1): 2 x None
                    )
                    (branch_bns): ModuleList(
                      (0-1): 2 x None
                    )
                  )
                )
                (branch_bns): ModuleList(
                  (0-1): 2 x None
                )
              )
            )
            (branch_bns): ModuleList(
              (0-1): 2 x BatchNorm2d(22, eps=1e-05, momentum=0.1, affine=True, track_running_stats=True)
            )
          )
        )
        (branch_bns): ModuleList(
          (0): None
        )
      )
      (final_bn): BatchNorm2d(88, eps=1e-05, momentum=0.1, affine=True, track_running_stats=True)
    )
    (5): ResidualTreeBlock(
      (in_bottle): ConvLayer(
        (bn): BatchNorm2d(88, eps=1e-05, momentum=0.1, affine=True, track_running_stats=True)
        (conv): Conv2d(88, 24, kernel_size=(1, 1), stride=(1, 1), bias=False)
      )
      (out_bottle): ConvLayer(
        (bn): BatchNorm2d(24, eps=1e-05, momentum=0.1, affine=True, track_running_stats=True)
        (activation): ReLU(inplace=True)
        (conv): Conv2d(24, 96, kernel_size=(1, 1), stride=(1, 1), bias=False)
      )
      (shortcut): IdentityLayer()
      (cell): TreeNode(
        (edges): ModuleList(
          (0): ConvLayer(
            (bn): BatchNorm2d(24, eps=1e-05, momentum=0.1, affine=True, track_running_stats=True)
            (activation): ReLU(inplace=True)
            (conv): Conv2d(24, 48, kernel_size=(3, 3), stride=(1, 1), padding=(1, 1), groups=2, bias=False)
          )
        )
        (child_nodes): ModuleList(
          (0): TreeNode(
            (edges): ModuleList(
              (0-1): 2 x IdentityLayer()
            )
            (child_nodes): ModuleList(
              (0): TreeNode(
                (edges): ModuleList(
                  (0): PoolingLayer(
                    (pool): AvgPool2d(kernel_size=3, stride=1, padding=1)
                  )
                  (1): IdentityLayer()
                )
                (child_nodes): ModuleList(
                  (0): TreeNode(
                    (edges): ModuleList(
                      (0): DepthConvLayer(
                        (bn): BatchNorm2d(24, eps=1e-05, momentum=0.1, affine=True, track_running_stats=True)
                        (activation): ReLU(inplace=True)
                        (depth_conv): Conv2d(24, 24, kernel_size=(5, 5), stride=(1, 1), padding=(2, 2), groups=24, bias=False)
                        (point_conv): Conv2d(24, 24, kernel_size=(1, 1), stride=(1, 1), bias=False)
                      )
                      (1): DepthConvLayer(
                        (bn): BatchNorm2d(24, eps=1e-05, momentum=0.1, affine=True, track_running_stats=True)
                        (activation): ReLU(inplace=True)
                        (depth_conv): Conv2d(24, 24, kernel_size=(3, 3), stride=(1, 1), padding=(2, 2), dilation=(2, 2), groups=24, bias=False)
                        (point_conv): Conv2d(24, 24, kernel_size=(1, 1), stride=(1, 1), bias=False)
                      )
                    )
                    (child_nodes): ModuleList(
                      (0-1): 2 x None
                    )
                    (branch_bns): ModuleList(
                      (0-1): 2 x None
                    )
                  )
                  (1): TreeNode(
                    (edges): ModuleList(
                      (0): DepthConvLayer(
                        (bn): BatchNorm2d(24, eps=1e-05, momentum=0.1, affine=True, track_running_stats=True)
                        (activation): ReLU(inplace=True)
                        (depth_conv): Conv2d(24, 24, kernel_size=(3, 3), stride=(1, 1), padding=(2, 2), dilation=(2, 2), groups=24, bias=False)
                        (point_conv): Conv2d(24, 24, kernel_size=(1, 1), stride=(1, 1), bias=False)
                      )
                      (1): DepthConvLayer(
                        (bn): BatchNorm2d(24, eps=1e-05, momentum=0.1, affine=True, track_running_stats=True)
                        (activation): ReLU(inplace=True)
                        (depth_conv): Conv2d(24, 24, kernel_size=(5, 5), stride=(1, 1), padding=(2, 2), groups=24, bias=False)
                        (point_conv): Conv2d(24, 24, kernel_size=(1, 1), stride=(1, 1), bias=False)
                      )
                    )
                    (child_nodes): ModuleList(
                      (0-1): 2 x None
                    )
                    (branch_bns): ModuleList(
                      (0-1): 2 x None
                    )
                  )
                )
                (branch_bns): ModuleList(
                  (0-1): 2 x None
                )
              )
              (1): TreeNode(
                (edges): ModuleList(
                  (0): DepthConvLayer(
                    (bn): BatchNorm2d(24, eps=1e-05, momentum=0.1, affine=True, track_running_stats=True)
                    (activation): ReLU(inplace=True)
                    (depth_conv): Conv2d(24, 24, kernel_size=(7, 7), stride=(1, 1), padding=(3, 3), groups=24, bias=False)
                    (point_conv): Conv2d(24, 24, kernel_size=(1, 1), stride=(1, 1), bias=False)
                  )
                  (1): PoolingLayer(
                    (pool): MaxPool2d(kernel_size=3, stride=1, padding=1, dilation=1, ceil_mode=False)
                  )
                )
                (child_nodes): ModuleList(
                  (0): TreeNode(
                    (edges): ModuleList(
                      (0): DepthConvLayer(
                        (bn): BatchNorm2d(24, eps=1e-05, momentum=0.1, affine=True, track_running_stats=True)
                        (activation): ReLU(inplace=True)
                        (depth_conv): Conv2d(24, 24, kernel_size=(7, 7), stride=(1, 1), padding=(3, 3), groups=24, bias=False)
                        (point_conv): Conv2d(24, 24, kernel_size=(1, 1), stride=(1, 1), bias=False)
                      )
                      (1): PoolingLayer(
                        (pool): AvgPool2d(kernel_size=3, stride=1, padding=1)
                      )
                    )
                    (child_nodes): ModuleList(
                      (0-1): 2 x None
                    )
                    (branch_bns): ModuleList(
                      (0-1): 2 x None
…
                    (child_nodes): ModuleList(
                      (0-1): 2 x None
                    )
                    (branch_bns): ModuleList(
                      (0-1): 2 x None
                    )
                  )
                )
                (branch_bns): ModuleList(
                  (0-1): 2 x None
                )
              )
            )
            (branch_bns): ModuleList(
              (0-1): 2 x BatchNorm2d(24, eps=1e-05, momentum=0.1, affine=True, track_running_stats=True)
            )
          )
        )
        (branch_bns): ModuleList(
          (0): None
        )
      )
      (final_bn): BatchNorm2d(96, eps=1e-05, momentum=0.1, affine=True, track_running_stats=True)
    )
    (6): ResidualTreeBlock(
      (in_bottle): ConvLayer(
        (bn): BatchNorm2d(96, eps=1e-05, momentum=0.1, affine=True, track_running_stats=True)
        (conv): Conv2d(96, 24, kernel_size=(1, 1), stride=(1, 1), bias=False)
      )
      (out_bottle): ConvLayer(
        (bn): BatchNorm2d(24, eps=1e-05, momentum=0.1, affine=True, track_running_stats=True)
        (activation): ReLU(inplace=True)
        (conv): Conv2d(24, 96, kernel_size=(1, 1), stride=(1, 1), bias=False)
      )
      (shortcut): IdentityLayer()
      (cell): TreeNode(
        (edges): ModuleList(
          (0): ConvLayer(
            (bn): BatchNorm2d(24, eps=1e-05, momentum=0.1, affine=True, track_running_stats=True)
            (activation): ReLU(inplace=True)
            (conv): Conv2d(24, 48, kernel_size=(3, 3), stride=(1, 1), padding=(1, 1), groups=2, bias=False)
          )
        )
        (child_nodes): ModuleList(
          (0): TreeNode(
            (edges): ModuleList(
              (0-1): 2 x IdentityLayer()
            )
            (child_nodes): ModuleList(
              (0): TreeNode(
                (edges): ModuleList(
                  (0): DepthConvLayer(
                    (bn): BatchNorm2d(24, eps=1e-05, momentum=0.1, affine=True, track_running_stats=True)
                    (activation): ReLU(inplace=True)
                    (depth_conv): Conv2d(24, 24, kernel_size=(7, 7), stride=(1, 1), padding=(3, 3), groups=24, bias=False)
                    (point_conv): Conv2d(24, 24, kernel_size=(1, 1), stride=(1, 1), bias=False)
                  )
                  (1): PoolingLayer(
                    (pool): MaxPool2d(kernel_size=3, stride=1, padding=1, dilation=1, ceil_mode=False)
                  )
                )
                (child_nodes): ModuleList(
                  (0): TreeNode(
                    (edges): ModuleList(
                      (0): DepthConvLayer(
                        (bn): BatchNorm2d(24, eps=1e-05, momentum=0.1, affine=True, track_running_stats=True)
                        (activation): ReLU(inplace=True)
                        (depth_conv): Conv2d(24, 24, kernel_size=(7, 7), stride=(1, 1), padding=(3, 3), groups=24, bias=False)
                        (point_conv): Conv2d(24, 24, kernel_size=(1, 1), stride=(1, 1), bias=False)
                      )
                      (1): PoolingLayer(
                        (pool): MaxPool2d(kernel_size=3, stride=1, padding=1, dilation=1, ceil_mode=False)
                      )
                    )
                    (child_nodes): ModuleList(
                      (0-1): 2 x None
                    )
                    (branch_bns): ModuleList(
                      (0-1): 2 x None
                    )
                  )
                  (1): TreeNode(
                    (edges): ModuleList(
                      (0): DepthConvLayer(
                        (bn): BatchNorm2d(24, eps=1e-05, momentum=0.1, affine=True, track_running_stats=True)
                        (activation): ReLU(inplace=True)
                        (depth_conv): Conv2d(24, 24, kernel_size=(3, 3), stride=(1, 1), padding=(1, 1), groups=24, bias=False)
                        (point_conv): Conv2d(24, 24, kernel_size=(1, 1), stride=(1, 1), bias=False)
                      )
                      (1): DepthConvLayer(
                        (bn): BatchNorm2d(24, eps=1e-05, momentum=0.1, affine=True, track_running_stats=True)
                        (activation): ReLU(inplace=True)
                        (depth_conv): Conv2d(24, 24, kernel_size=(5, 5), stride=(1, 1), padding=(2, 2), groups=24, bias=False)
                        (point_conv): Conv2d(24, 24, kernel_size=(1, 1), stride=(1, 1), bias=False)
                      )
                    )
                    (child_nodes): ModuleList(
                      (0-1): 2 x None
                    )
                    (branch_bns): ModuleList(
                      (0-1): 2 x None
                    )
                  )
                )
                (branch_bns): ModuleList(
                  (0-1): 2 x None
                )
              )
              (1): TreeNode(
                (edges): ModuleList(
                  (0): PoolingLayer(
                    (pool): AvgPool2d(kernel_size=3, stride=1, padding=1)
                  )
                  (1): DepthConvLayer(
                    (bn): BatchNorm2d(24, eps=1e-05, momentum=0.1, affine=True, track_running_stats=True)
                    (activation): ReLU(inplace=True)
                    (depth_conv): Conv2d(24, 24, kernel_size=(7, 7), stride=(1, 1), padding=(3, 3), groups=24, bias=False)
                    (point_conv): Conv2d(24, 24, kernel_size=(1, 1), stride=(1, 1), bias=False)
                  )
                )
                (child_nodes): ModuleList(
                  (0): TreeNode(
                    (edges): ModuleList(
                      (0): DepthConvLayer(
                        (bn): BatchNorm2d(24, eps=1e-05, momentum=0.1, affine=True, track_running_stats=True)
                        (activation): ReLU(inplace=True)
                        (depth_conv): Conv2d(24, 24, kernel_size=(3, 3), stride=(1, 1), padding=(2, 2), dilation=(2, 2), groups=24, bias=False)
                        (point_conv): Conv2d(24, 24, kernel_size=(1, 1), stride=(1, 1), bias=False)
                      )
                      (1): DepthConvLayer(
                        (bn): BatchNorm2d(24, eps=1e-05, momentum=0.1, affine=True, track_running_stats=True)
                        (activation): ReLU(inplace=True)
                        (depth_conv): Conv2d(24, 24, kernel_size=(3, 3), stride=(1, 1), padding=(1, 1), groups=24, bias=False)
                        (point_conv): Conv2d(24, 24, kernel_size=(1, 1), stride=(1, 1), bias=False)
                      )
                    )
                    (child_nodes): ModuleList(
                      (0-1): 2 x None
                    )
                    (branch_bns): ModuleList(
                      (0-1): 2 x None
                    )
                  )
                  (1): TreeNode(
                    (edges): ModuleList(
…
                    (child_nodes): ModuleList(
                      (0-1): 2 x None
                    )
                    (branch_bns): ModuleList(
                      (0-1): 2 x None
                    )
                  )
                )
                (branch_bns): ModuleList(
                  (0-1): 2 x None
                )
              )
            )
            (branch_bns): ModuleList(
              (0-1): 2 x BatchNorm2d(24, eps=1e-05, momentum=0.1, affine=True, track_running_stats=True)
            )
          )
        )
        (branch_bns): ModuleList(
          (0): None
        )
      )
      (final_bn): BatchNorm2d(96, eps=1e-05, momentum=0.1, affine=True, track_running_stats=True)
    )
    (7): ResidualTreeBlock(
      (in_bottle): ConvLayer(
        (bn): BatchNorm2d(96, eps=1e-05, momentum=0.1, affine=True, track_running_stats=True)
        (conv): Conv2d(96, 26, kernel_size=(1, 1), stride=(1, 1), bias=False)
      )
      (out_bottle): ConvLayer(
        (bn): BatchNorm2d(26, eps=1e-05, momentum=0.1, affine=True, track_running_stats=True)
        (activation): ReLU(inplace=True)
        (conv): Conv2d(26, 104, kernel_size=(1, 1), stride=(1, 1), bias=False)
      )
      (shortcut): IdentityLayer()
      (cell): TreeNode(
        (edges): ModuleList(
          (0): ConvLayer(
            (bn): BatchNorm2d(26, eps=1e-05, momentum=0.1, affine=True, track_running_stats=True)
            (activation): ReLU(inplace=True)
            (conv): Conv2d(26, 52, kernel_size=(3, 3), stride=(1, 1), padding=(1, 1), groups=2, bias=False)
          )
        )
        (child_nodes): ModuleList(
          (0): TreeNode(
            (edges): ModuleList(
              (0-1): 2 x IdentityLayer()
            )
            (child_nodes): ModuleList(
              (0): TreeNode(
                (edges): ModuleList(
                  (0): DepthConvLayer(
                    (bn): BatchNorm2d(26, eps=1e-05, momentum=0.1, affine=True, track_running_stats=True)
                    (activation): ReLU(inplace=True)
                    (depth_conv): Conv2d(26, 26, kernel_size=(3, 3), stride=(1, 1), padding=(2, 2), dilation=(2, 2), groups=26, bias=False)
                    (point_conv): Conv2d(26, 26, kernel_size=(1, 1), stride=(1, 1), bias=False)
                  )
                  (1): PoolingLayer(
                    (pool): MaxPool2d(kernel_size=3, stride=1, padding=1, dilation=1, ceil_mode=False)
                  )
                )
                (child_nodes): ModuleList(
                  (0): TreeNode(
                    (edges): ModuleList(
                      (0): IdentityLayer()
                      (1): PoolingLayer(
                        (pool): MaxPool2d(kernel_size=3, stride=1, padding=1, dilation=1, ceil_mode=False)
                      )
                    )
                    (child_nodes): ModuleList(
                      (0-1): 2 x None
                    )
                    (branch_bns): ModuleList(
                      (0-1): 2 x None
                    )
                  )
                  (1): TreeNode(
                    (edges): ModuleList(
                      (0-1): 2 x DepthConvLayer(
                        (bn): BatchNorm2d(26, eps=1e-05, momentum=0.1, affine=True, track_running_stats=True)
                        (activation): ReLU(inplace=True)
                        (depth_conv): Conv2d(26, 26, kernel_size=(7, 7), stride=(1, 1), padding=(3, 3), groups=26, bias=False)
                        (point_conv): Conv2d(26, 26, kernel_size=(1, 1), stride=(1, 1), bias=False)
                      )
                    )
                    (child_nodes): ModuleList(
                      (0-1): 2 x None
                    )
                    (branch_bns): ModuleList(
                      (0-1): 2 x None
                    )
                  )
                )
                (branch_bns): ModuleList(
                  (0-1): 2 x None
                )
              )
              (1): TreeNode(
                (edges): ModuleList(
                  (0-1): 2 x DepthConvLayer(
                    (bn): BatchNorm2d(26, eps=1e-05, momentum=0.1, affine=True, track_running_stats=True)
                    (activation): ReLU(inplace=True)
                    (depth_conv): Conv2d(26, 26, kernel_size=(7, 7), stride=(1, 1), padding=(3, 3), groups=26, bias=False)
                    (point_conv): Conv2d(26, 26, kernel_size=(1, 1), stride=(1, 1), bias=False)
                  )
                )
                (child_nodes): ModuleList(
                  (0): TreeNode(
                    (edges): ModuleList(
                      (0): DepthConvLayer(
                        (bn): BatchNorm2d(26, eps=1e-05, momentum=0.1, affine=True, track_running_stats=True)
                        (activation): ReLU(inplace=True)
                        (depth_conv): Conv2d(26, 26, kernel_size=(5, 5), stride=(1, 1), padding=(2, 2), groups=26, bias=False)
                        (point_conv): Conv2d(26, 26, kernel_size=(1, 1), stride=(1, 1), bias=False)
                      )
                      (1): DepthConvLayer(
                        (bn): BatchNorm2d(26, eps=1e-05, momentum=0.1, affine=True, track_running_stats=True)
                        (activation): ReLU(inplace=True)
                        (depth_conv): Conv2d(26, 26, kernel_size=(3, 3), stride=(1, 1), padding=(1, 1), groups=26, bias=False)
                        (point_conv): Conv2d(26, 26, kernel_size=(1, 1), stride=(1, 1), bias=False)
                      )
                    )
                    (child_nodes): ModuleList(
                      (0-1): 2 x None
                    )
                    (branch_bns): ModuleList(
                      (0-1): 2 x None
                    )
                  )
                  (1): TreeNode(
                    (edges): ModuleList(
…
                    (child_nodes): ModuleList(
                      (0-1): 2 x None
                    )
                    (branch_bns): ModuleList(
                      (0-1): 2 x None
                    )
                  )
                )
                (branch_bns): ModuleList(
                  (0-1): 2 x None
                )
              )
            )
            (branch_bns): ModuleList(
              (0-1): 2 x BatchNorm2d(26, eps=1e-05, momentum=0.1, affine=True, track_running_stats=True)
            )
          )
        )
        (branch_bns): ModuleList(
          (0): None
        )
      )
      (final_bn): BatchNorm2d(104, eps=1e-05, momentum=0.1, affine=True, track_running_stats=True)
    )
    (8): ResidualTreeBlock(
      (in_bottle): ConvLayer(
        (bn): BatchNorm2d(104, eps=1e-05, momentum=0.1, affine=True, track_running_stats=True)
        (conv): Conv2d(104, 28, kernel_size=(1, 1), stride=(1, 1), bias=False)
      )
      (out_bottle): ConvLayer(
        (bn): BatchNorm2d(28, eps=1e-05, momentum=0.1, affine=True, track_running_stats=True)
        (activation): ReLU(inplace=True)
        (conv): Conv2d(28, 112, kernel_size=(1, 1), stride=(1, 1), bias=False)
      )
      (shortcut): IdentityLayer()
      (cell): TreeNode(
        (edges): ModuleList(
          (0): ConvLayer(
            (bn): BatchNorm2d(28, eps=1e-05, momentum=0.1, affine=True, track_running_stats=True)
            (activation): ReLU(inplace=True)
            (conv): Conv2d(28, 56, kernel_size=(3, 3), stride=(1, 1), padding=(1, 1), groups=2, bias=False)
          )
        )
        (child_nodes): ModuleList(
          (0): TreeNode(
            (edges): ModuleList(
              (0-1): 2 x IdentityLayer()
            )
            (child_nodes): ModuleList(
              (0): TreeNode(
                (edges): ModuleList(
                  (0-1): 2 x DepthConvLayer(
                    (bn): BatchNorm2d(28, eps=1e-05, momentum=0.1, affine=True, track_running_stats=True)
                    (activation): ReLU(inplace=True)
                    (depth_conv): Conv2d(28, 28, kernel_size=(3, 3), stride=(1, 1), padding=(2, 2), dilation=(2, 2), groups=28, bias=False)
                    (point_conv): Conv2d(28, 28, kernel_size=(1, 1), stride=(1, 1), bias=False)
                  )
                )
                (child_nodes): ModuleList(
                  (0-1): 2 x TreeNode(
                    (edges): ModuleList(
                      (0): DepthConvLayer(
                        (bn): BatchNorm2d(28, eps=1e-05, momentum=0.1, affine=True, track_running_stats=True)
                        (activation): ReLU(inplace=True)
                        (depth_conv): Conv2d(28, 28, kernel_size=(5, 5), stride=(1, 1), padding=(2, 2), groups=28, bias=False)
                        (point_conv): Conv2d(28, 28, kernel_size=(1, 1), stride=(1, 1), bias=False)
                      )
                      (1): DepthConvLayer(
                        (bn): BatchNorm2d(28, eps=1e-05, momentum=0.1, affine=True, track_running_stats=True)
                        (activation): ReLU(inplace=True)
                        (depth_conv): Conv2d(28, 28, kernel_size=(7, 7), stride=(1, 1), padding=(3, 3), groups=28, bias=False)
                        (point_conv): Conv2d(28, 28, kernel_size=(1, 1), stride=(1, 1), bias=False)
                      )
                    )
                    (child_nodes): ModuleList(
                      (0-1): 2 x None
                    )
                    (branch_bns): ModuleList(
                      (0-1): 2 x None
                    )
                  )
                )
                (branch_bns): ModuleList(
                  (0-1): 2 x None
                )
              )
              (1): TreeNode(
                (edges): ModuleList(
                  (0): PoolingLayer(
                    (pool): MaxPool2d(kernel_size=3, stride=1, padding=1, dilation=1, ceil_mode=False)
                  )
                  (1): DepthConvLayer(
                    (bn): BatchNorm2d(28, eps=1e-05, momentum=0.1, affine=True, track_running_stats=True)
                    (activation): ReLU(inplace=True)
                    (depth_conv): Conv2d(28, 28, kernel_size=(5, 5), stride=(1, 1), padding=(2, 2), groups=28, bias=False)
                    (point_conv): Conv2d(28, 28, kernel_size=(1, 1), stride=(1, 1), bias=False)
                  )
                )
                (child_nodes): ModuleList(
                  (0): TreeNode(
                    (edges): ModuleList(
                      (0-1): 2 x PoolingLayer(
                        (pool): AvgPool2d(kernel_size=3, stride=1, padding=1)
                      )
                    )
                    (child_nodes): ModuleList(
                      (0-1): 2 x None
                    )
                    (branch_bns): ModuleList(
                      (0-1): 2 x None
                    )
                  )
                  (1): TreeNode(
                    (edges): ModuleList(
                      (0): DepthConvLayer(
                        (bn): BatchNorm2d(28, eps=1e-05, momentum=0.1, affine=True, track_running_stats=True)
                        (activation): ReLU(inplace=True)
                        (depth_conv): Conv2d(28, 28, kernel_size=(3, 3), stride=(1, 1), padding=(1, 1), groups=28, bias=False)
                        (point_conv): Conv2d(28, 28, kernel_size=(1, 1), stride=(1, 1), bias=False)
                      )
                      (1): DepthConvLayer(
                        (bn): BatchNorm2d(28, eps=1e-05, momentum=0.1, affine=True, track_running_stats=True)
                        (activation): ReLU(inplace=True)
                        (depth_conv): Conv2d(28, 28, kernel_size=(7, 7), stride=(1, 1), padding=(3, 3), groups=28, bias=False)
                        (point_conv): Conv2d(28, 28, kernel_size=(1, 1), stride=(1, 1), bias=False)
                      )
                    )
                    (child_nodes): ModuleList(
                      (0-1): 2 x None
                    )
                    (branch_bns): ModuleList(
                      (0-1): 2 x None
                    )
                  )
                )
                (branch_bns): ModuleList(
                  (0-1): 2 x None
                )
              )
            )
            (branch_bns): ModuleList(
              (0-1): 2 x BatchNorm2d(28, eps=1e-05, momentum=0.1, affine=True, track_running_stats=True)
            )
          )
        )
        (branch_bns): ModuleList(
          (0): None
        )
      )
      (final_bn): BatchNorm2d(112, eps=1e-05, momentum=0.1, affine=True, track_running_stats=True)
    )
    (9): ResidualTreeBlock(
      (in_bottle): ConvLayer(
        (bn): BatchNorm2d(112, eps=1e-05, momentum=0.1, affine=True, track_running_stats=True)
        (conv): Conv2d(112, 30, kernel_size=(1, 1), stride=(1, 1), bias=False)
      )
      (out_bottle): ConvLayer(
        (bn): BatchNorm2d(30, eps=1e-05, momentum=0.1, affine=True, track_running_stats=True)
        (activation): ReLU(inplace=True)
        (conv): Conv2d(30, 120, kernel_size=(1, 1), stride=(1, 1), bias=False)
      )
      (shortcut): IdentityLayer()
      (cell): TreeNode(
        (edges): ModuleList(
          (0): ConvLayer(
            (bn): BatchNorm2d(30, eps=1e-05, momentum=0.1, affine=True, track_running_stats=True)
            (activation): ReLU(inplace=True)
            (conv): Conv2d(30, 60, kernel_size=(3, 3), stride=(1, 1), padding=(1, 1), groups=2, bias=False)
          )
        )
        (child_nodes): ModuleList(
          (0): TreeNode(
            (edges): ModuleList(
              (0-1): 2 x IdentityLayer()
            )
            (child_nodes): ModuleList(
              (0): TreeNode(
                (edges): ModuleList(
                  (0): DepthConvLayer(
                    (bn): BatchNorm2d(30, eps=1e-05, momentum=0.1, affine=True, track_running_stats=True)
                    (activation): ReLU(inplace=True)
                    (depth_conv): Conv2d(30, 30, kernel_size=(7, 7), stride=(1, 1), padding=(3, 3), groups=30, bias=False)
                    (point_conv): Conv2d(30, 30, kernel_size=(1, 1), stride=(1, 1), bias=False)
                  )
                  (1): DepthConvLayer(
                    (bn): BatchNorm2d(30, eps=1e-05, momentum=0.1, affine=True, track_running_stats=True)
                    (activation): ReLU(inplace=True)
                    (depth_conv): Conv2d(30, 30, kernel_size=(3, 3), stride=(1, 1), padding=(2, 2), dilation=(2, 2), groups=30, bias=False)
                    (point_conv): Conv2d(30, 30, kernel_size=(1, 1), stride=(1, 1), bias=False)
                  )
                )
                (child_nodes): ModuleList(
                  (0): TreeNode(
                    (edges): ModuleList(
                      (0): DepthConvLayer(
                        (bn): BatchNorm2d(30, eps=1e-05, momentum=0.1, affine=True, track_running_stats=True)
                        (activation): ReLU(inplace=True)
                        (depth_conv): Conv2d(30, 30, kernel_size=(5, 5), stride=(1, 1), padding=(2, 2), groups=30, bias=False)
                        (point_conv): Conv2d(30, 30, kernel_size=(1, 1), stride=(1, 1), bias=False)
                      )
                      (1): PoolingLayer(
                        (pool): MaxPool2d(kernel_size=3, stride=1, padding=1, dilation=1, ceil_mode=False)
                      )
                    )
                    (child_nodes): ModuleList(
                      (0-1): 2 x None
                    )
                    (branch_bns): ModuleList(
…
                    )
                  )
                )
                (branch_bns): ModuleList(
                  (0-1): 2 x None
                )
              )
              (1): TreeNode(
                (edges): ModuleList(
                  (0-1): 2 x PoolingLayer(
                    (pool): MaxPool2d(kernel_size=3, stride=1, padding=1, dilation=1, ceil_mode=False)
                  )
                )
                (child_nodes): ModuleList(
                  (0): TreeNode(
                    (edges): ModuleList(
                      (0): DepthConvLayer(
                        (bn): BatchNorm2d(30, eps=1e-05, momentum=0.1, affine=True, track_running_stats=True)
                        (activation): ReLU(inplace=True)
                        (depth_conv): Conv2d(30, 30, kernel_size=(3, 3), stride=(1, 1), padding=(1, 1), groups=30, bias=False)
                        (point_conv): Conv2d(30, 30, kernel_size=(1, 1), stride=(1, 1), bias=False)
                      )
                      (1): PoolingLayer(
                        (pool): AvgPool2d(kernel_size=3, stride=1, padding=1)
                      )
                    )
                    (child_nodes): ModuleList(
                      (0-1): 2 x None
                    )
                    (branch_bns): ModuleList(
                      (0-1): 2 x None
                    )
                  )
                  (1): TreeNode(
                    (edges): ModuleList(
                      (0): PoolingLayer(
                        (pool): AvgPool2d(kernel_size=3, stride=1, padding=1)
                      )
                      (1): DepthConvLayer(
                        (bn): BatchNorm2d(30, eps=1e-05, momentum=0.1, affine=True, track_running_stats=True)
                        (activation): ReLU(inplace=True)
                        (depth_conv): Conv2d(30, 30, kernel_size=(3, 3), stride=(1, 1), padding=(2, 2), dilation=(2, 2), groups=30, bias=False)
                        (point_conv): Conv2d(30, 30, kernel_size=(1, 1), stride=(1, 1), bias=False)
                      )
                    )
                    (child_nodes): ModuleList(
                      (0-1): 2 x None
                    )
                    (branch_bns): ModuleList(
                      (0-1): 2 x None
                    )
                  )
                )
                (branch_bns): ModuleList(
                  (0-1): 2 x None
                )
              )
            )
            (branch_bns): ModuleList(
              (0-1): 2 x BatchNorm2d(30, eps=1e-05, momentum=0.1, affine=True, track_running_stats=True)
            )
          )
        )
        (branch_bns): ModuleList(
          (0): None
        )
      )
      (final_bn): BatchNorm2d(120, eps=1e-05, momentum=0.1, affine=True, track_running_stats=True)
    )
    (10): ResidualTreeBlock(
      (in_bottle): ConvLayer(
        (bn): BatchNorm2d(120, eps=1e-05, momentum=0.1, affine=True, track_running_stats=True)
        (conv): Conv2d(120, 32, kernel_size=(1, 1), stride=(1, 1), bias=False)
      )
      (out_bottle): ConvLayer(
        (bn): BatchNorm2d(32, eps=1e-05, momentum=0.1, affine=True, track_running_stats=True)
        (activation): ReLU(inplace=True)
        (conv): Conv2d(32, 128, kernel_size=(1, 1), stride=(1, 1), bias=False)
      )
      (shortcut): IdentityLayer()
      (cell): TreeNode(
        (edges): ModuleList(
          (0): ConvLayer(
            (bn): BatchNorm2d(32, eps=1e-05, momentum=0.1, affine=True, track_running_stats=True)
            (activation): ReLU(inplace=True)
            (conv): Conv2d(32, 64, kernel_size=(3, 3), stride=(1, 1), padding=(1, 1), groups=2, bias=False)
          )
        )
        (child_nodes): ModuleList(
          (0): TreeNode(
            (edges): ModuleList(
              (0-1): 2 x IdentityLayer()
            )
            (child_nodes): ModuleList(
              (0): TreeNode(
                (edges): ModuleList(
                  (0): DepthConvLayer(
                    (bn): BatchNorm2d(32, eps=1e-05, momentum=0.1, affine=True, track_running_stats=True)
                    (activation): ReLU(inplace=True)
                    (depth_conv): Conv2d(32, 32, kernel_size=(5, 5), stride=(1, 1), padding=(2, 2), groups=32, bias=False)
                    (point_conv): Conv2d(32, 32, kernel_size=(1, 1), stride=(1, 1), bias=False)
                  )
                  (1): IdentityLayer()
                )
                (child_nodes): ModuleList(
                  (0): TreeNode(
                    (edges): ModuleList(
                      (0): DepthConvLayer(
                        (bn): BatchNorm2d(32, eps=1e-05, momentum=0.1, affine=True, track_running_stats=True)
                        (activation): ReLU(inplace=True)
                        (depth_conv): Conv2d(32, 32, kernel_size=(3, 3), stride=(1, 1), padding=(1, 1), groups=32, bias=False)
                        (point_conv): Conv2d(32, 32, kernel_size=(1, 1), stride=(1, 1), bias=False)
                      )
                      (1): IdentityLayer()
                    )
                    (child_nodes): ModuleList(
                      (0-1): 2 x None
                    )
                    (branch_bns): ModuleList(
                      (0-1): 2 x None
                    )
                  )
                  (1): TreeNode(
                    (edges): ModuleList(
                      (0): DepthConvLayer(
                        (bn): BatchNorm2d(32, eps=1e-05, momentum=0.1, affine=True, track_running_stats=True)
                        (activation): ReLU(inplace=True)
                        (depth_conv): Conv2d(32, 32, kernel_size=(3, 3), stride=(1, 1), padding=(1, 1), groups=32, bias=False)
                        (point_conv): Conv2d(32, 32, kernel_size=(1, 1), stride=(1, 1), bias=False)
                      )
                      (1): DepthConvLayer(
                        (bn): BatchNorm2d(32, eps=1e-05, momentum=0.1, affine=True, track_running_stats=True)
                        (activation): ReLU(inplace=True)
                        (depth_conv): Conv2d(32, 32, kernel_size=(7, 7), stride=(1, 1), padding=(3, 3), groups=32, bias=False)
                        (point_conv): Conv2d(32, 32, kernel_size=(1, 1), stride=(1, 1), bias=False)
                      )
                    )
                    (child_nodes): ModuleList(
                      (0-1): 2 x None
                    )
                    (branch_bns): ModuleList(
                      (0-1): 2 x None
                    )
                  )
                )
                (branch_bns): ModuleList(
                  (0-1): 2 x None
                )
              )
              (1): TreeNode(
                (edges): ModuleList(
                  (0): DepthConvLayer(
                    (bn): BatchNorm2d(32, eps=1e-05, momentum=0.1, affine=True, track_running_stats=True)
                    (activation): ReLU(inplace=True)
                    (depth_conv): Conv2d(32, 32, kernel_size=(3, 3), stride=(1, 1), padding=(1, 1), groups=32, bias=False)
                    (point_conv): Conv2d(32, 32, kernel_size=(1, 1), stride=(1, 1), bias=False)
                  )
                  (1): IdentityLayer()
                )
                (child_nodes): ModuleList(
                  (0-1): 2 x TreeNode(
                    (edges): ModuleList(
                      (0): DepthConvLayer(
                        (bn): BatchNorm2d(32, eps=1e-05, momentum=0.1, affine=True, track_running_stats=True)
                        (activation): ReLU(inplace=True)
                        (depth_conv): Conv2d(32, 32, kernel_size=(5, 5), stride=(1, 1), padding=(2, 2), groups=32, bias=False)
                        (point_conv): Conv2d(32, 32, kernel_size=(1, 1), stride=(1, 1), bias=False)
                      )
                      (1): DepthConvLayer(
                        (bn): BatchNorm2d(32, eps=1e-05, momentum=0.1, affine=True, track_running_stats=True)
                        (activation): ReLU(inplace=True)
                        (depth_conv): Conv2d(32, 32, kernel_size=(7, 7), stride=(1, 1), padding=(3, 3), groups=32, bias=False)
                        (point_conv): Conv2d(32, 32, kernel_size=(1, 1), stride=(1, 1), bias=False)
                      )
                    )
                    (child_nodes): ModuleList(
                      (0-1): 2 x None
                    )
                    (branch_bns): ModuleList(
                      (0-1): 2 x None
                    )
                  )
                )
                (branch_bns): ModuleList(
                  (0-1): 2 x None
                )
              )
            )
            (branch_bns): ModuleList(
              (0-1): 2 x BatchNorm2d(32, eps=1e-05, momentum=0.1, affine=True, track_running_stats=True)
            )
          )
        )
        (branch_bns): ModuleList(
          (0): None
        )
      )
      (final_bn): BatchNorm2d(128, eps=1e-05, momentum=0.1, affine=True, track_running_stats=True)
    )
    (11): ResidualTreeBlock(
      (in_bottle): ConvLayer(
        (bn): BatchNorm2d(128, eps=1e-05, momentum=0.1, affine=True, track_running_stats=True)
        (conv): Conv2d(128, 32, kernel_size=(1, 1), stride=(1, 1), bias=False)
      )
      (out_bottle): ConvLayer(
        (bn): BatchNorm2d(32, eps=1e-05, momentum=0.1, affine=True, track_running_stats=True)
        (activation): ReLU(inplace=True)
        (conv): Conv2d(32, 128, kernel_size=(1, 1), stride=(1, 1), bias=False)
      )
      (shortcut): IdentityLayer()
      (cell): TreeNode(
        (edges): ModuleList(
          (0): ConvLayer(
            (bn): BatchNorm2d(32, eps=1e-05, momentum=0.1, affine=True, track_running_stats=True)
            (activation): ReLU(inplace=True)
            (conv): Conv2d(32, 64, kernel_size=(3, 3), stride=(1, 1), padding=(1, 1), groups=2, bias=False)
          )
        )
        (child_nodes): ModuleList(
          (0): TreeNode(
            (edges): ModuleList(
              (0-1): 2 x IdentityLayer()
            )
            (child_nodes): ModuleList(
              (0): TreeNode(
                (edges): ModuleList(
                  (0): DepthConvLayer(
                    (bn): BatchNorm2d(32, eps=1e-05, momentum=0.1, affine=True, track_running_stats=True)
                    (activation): ReLU(inplace=True)
                    (depth_conv): Conv2d(32, 32, kernel_size=(7, 7), stride=(1, 1), padding=(3, 3), groups=32, bias=False)
                    (point_conv): Conv2d(32, 32, kernel_size=(1, 1), stride=(1, 1), bias=False)
                  )
                  (1): PoolingLayer(
                    (pool): AvgPool2d(kernel_size=3, stride=1, padding=1)
                  )
                )
                (child_nodes): ModuleList(
                  (0): TreeNode(
                    (edges): ModuleList(
                      (0): DepthConvLayer(
                        (bn): BatchNorm2d(32, eps=1e-05, momentum=0.1, affine=True, track_running_stats=True)
                        (activation): ReLU(inplace=True)
                        (depth_conv): Conv2d(32, 32, kernel_size=(7, 7), stride=(1, 1), padding=(3, 3), groups=32, bias=False)
                        (point_conv): Conv2d(32, 32, kernel_size=(1, 1), stride=(1, 1), bias=False)
                      )
                      (1): DepthConvLayer(
                        (bn): BatchNorm2d(32, eps=1e-05, momentum=0.1, affine=True, track_running_stats=True)
                        (activation): ReLU(inplace=True)
                        (depth_conv): Conv2d(32, 32, kernel_size=(5, 5), stride=(1, 1), padding=(2, 2), groups=32, bias=False)
                        (point_conv): Conv2d(32, 32, kernel_size=(1, 1), stride=(1, 1), bias=False)
                      )
                    )
                    (child_nodes): ModuleList(
                      (0-1): 2 x None
                    )
                    (branch_bns): ModuleList(
                      (0-1): 2 x None
                    )
                  )
                  (1): TreeNode(
                    (edges): ModuleList(
                      (0): DepthConvLayer(
                        (bn): BatchNorm2d(32, eps=1e-05, momentum=0.1, affine=True, track_running_stats=True)
                        (activation): ReLU(inplace=True)
                        (depth_conv): Conv2d(32, 32, kernel_size=(3, 3), stride=(1, 1), padding=(1, 1), groups=32, bias=False)
                        (point_conv): Conv2d(32, 32, kernel_size=(1, 1), stride=(1, 1), bias=False)
                      )
                      (1): DepthConvLayer(
                        (bn): BatchNorm2d(32, eps=1e-05, momentum=0.1, affine=True, track_running_stats=True)
                        (activation): ReLU(inplace=True)
                        (depth_conv): Conv2d(32, 32, kernel_size=(5, 5), stride=(1, 1), padding=(2, 2), groups=32, bias=False)
                        (point_conv): Conv2d(32, 32, kernel_size=(1, 1), stride=(1, 1), bias=False)
                      )
                    )
                    (child_nodes): ModuleList(
                      (0-1): 2 x None
                    )
                    (branch_bns): ModuleList(
                      (0-1): 2 x None
                    )
                  )
                )
                (branch_bns): ModuleList(
                  (0-1): 2 x None
                )
              )
              (1): TreeNode(
                (edges): ModuleList(
                  (0): DepthConvLayer(
                    (bn): BatchNorm2d(32, eps=1e-05, momentum=0.1, affine=True, track_running_stats=True)
                    (activation): ReLU(inplace=True)
                    (depth_conv): Conv2d(32, 32, kernel_size=(3, 3), stride=(1, 1), padding=(2, 2), dilation=(2, 2), groups=32, bias=False)
                    (point_conv): Conv2d(32, 32, kernel_size=(1, 1), stride=(1, 1), bias=False)
                  )
                  (1): IdentityLayer()
                )
                (child_nodes): ModuleList(
                  (0): TreeNode(
                    (edges): ModuleList(
                      (0): PoolingLayer(
                        (pool): AvgPool2d(kernel_size=3, stride=1, padding=1)
                      )
                      (1): DepthConvLayer(
                        (bn): BatchNorm2d(32, eps=1e-05, momentum=0.1, affine=True, track_running_stats=True)
                        (activation): ReLU(inplace=True)
                        (depth_conv): Conv2d(32, 32, kernel_size=(3, 3), stride=(1, 1), padding=(2, 2), dilation=(2, 2), groups=32, bias=False)
                        (point_conv): Conv2d(32, 32, kernel_size=(1, 1), stride=(1, 1), bias=False)
                      )
                    )
                    (child_nodes): ModuleList(
                      (0-1): 2 x None
                    )
                    (branch_bns): ModuleList(
                      (0-1): 2 x None
                    )
                  )
                  (1): TreeNode(
                    (edges): ModuleList(
                      (0): DepthConvLayer(
                        (bn): BatchNorm2d(32, eps=1e-05, momentum=0.1, affine=True, track_running_stats=True)
                        (activation): ReLU(inplace=True)
                        (depth_conv): Conv2d(32, 32, kernel_size=(3, 3), stride=(1, 1), padding=(2, 2), dilation=(2, 2), groups=32, bias=False)
                        (point_conv): Conv2d(32, 32, kernel_size=(1, 1), stride=(1, 1), bias=False)
                      )
                      (1): DepthConvLayer(
                        (bn): BatchNorm2d(32, eps=1e-05, momentum=0.1, affine=True, track_running_stats=True)
                        (activation): ReLU(inplace=True)
                        (depth_conv): Conv2d(32, 32, kernel_size=(3, 3), stride=(1, 1), padding=(1, 1), groups=32, bias=False)
                        (point_conv): Conv2d(32, 32, kernel_size=(1, 1), stride=(1, 1), bias=False)
                      )
                    )
                    (child_nodes): ModuleList(
                      (0-1): 2 x None
                    )
                    (branch_bns): ModuleList(
                      (0-1): 2 x None
                    )
                  )
                )
                (branch_bns): ModuleList(
                  (0-1): 2 x None
                )
              )
            )
            (branch_bns): ModuleList(
              (0-1): 2 x BatchNorm2d(32, eps=1e-05, momentum=0.1, affine=True, track_running_stats=True)
            )
          )
        )
        (branch_bns): ModuleList(
          (0): None
        )
      )
      (final_bn): BatchNorm2d(128, eps=1e-05, momentum=0.1, affine=True, track_running_stats=True)
    )
    (12): ResidualTreeBlock(
      (in_bottle): ConvLayer(
        (bn): BatchNorm2d(128, eps=1e-05, momentum=0.1, affine=True, track_running_stats=True)
        (conv): Conv2d(128, 34, kernel_size=(1, 1), stride=(1, 1), bias=False)
      )
      (out_bottle): ConvLayer(
        (bn): BatchNorm2d(34, eps=1e-05, momentum=0.1, affine=True, track_running_stats=True)
        (activation): ReLU(inplace=True)
        (conv): Conv2d(34, 136, kernel_size=(1, 1), stride=(1, 1), bias=False)
      )
      (shortcut): IdentityLayer()
      (cell): TreeNode(
        (edges): ModuleList(
          (0): ConvLayer(
            (bn): BatchNorm2d(34, eps=1e-05, momentum=0.1, affine=True, track_running_stats=True)
            (activation): ReLU(inplace=True)
            (conv): Conv2d(34, 68, kernel_size=(3, 3), stride=(1, 1), padding=(1, 1), groups=2, bias=False)
          )
        )
        (child_nodes): ModuleList(
          (0): TreeNode(
            (edges): ModuleList(
              (0-1): 2 x IdentityLayer()
            )
            (child_nodes): ModuleList(
              (0): TreeNode(
                (edges): ModuleList(
                  (0): DepthConvLayer(
                    (bn): BatchNorm2d(34, eps=1e-05, momentum=0.1, affine=True, track_running_stats=True)
                    (activation): ReLU(inplace=True)
                    (depth_conv): Conv2d(34, 34, kernel_size=(5, 5), stride=(1, 1), padding=(2, 2), groups=34, bias=False)
                    (point_conv): Conv2d(34, 34, kernel_size=(1, 1), stride=(1, 1), bias=False)
                  )
                  (1): DepthConvLayer(
                    (bn): BatchNorm2d(34, eps=1e-05, momentum=0.1, affine=True, track_running_stats=True)
                    (activation): ReLU(inplace=True)
                    (depth_conv): Conv2d(34, 34, kernel_size=(3, 3), stride=(1, 1), padding=(2, 2), dilation=(2, 2), groups=34, bias=False)
                    (point_conv): Conv2d(34, 34, kernel_size=(1, 1), stride=(1, 1), bias=False)
                  )
                )
                (child_nodes): ModuleList(
                  (0): TreeNode(
                    (edges): ModuleList(
                      (0): PoolingLayer(
                        (pool): AvgPool2d(kernel_size=3, stride=1, padding=1)
                      )
                      (1): DepthConvLayer(
                        (bn): BatchNorm2d(34, eps=1e-05, momentum=0.1, affine=True, track_running_stats=True)
                        (activation): ReLU(inplace=True)
                        (depth_conv): Conv2d(34, 34, kernel_size=(5, 5), stride=(1, 1), padding=(2, 2), groups=34, bias=False)
                        (point_conv): Conv2d(34, 34, kernel_size=(1, 1), stride=(1, 1), bias=False)
                      )
                    )
                    (child_nodes): ModuleList(
                      (0-1): 2 x None
                    )
                    (branch_bns): ModuleList(
                      (0-1): 2 x None
                    )
                  )
                  (1): TreeNode(
                    (edges): ModuleList(
                      (0-1): 2 x DepthConvLayer(
                        (bn): BatchNorm2d(34, eps=1e-05, momentum=0.1, affine=True, track_running_stats=True)
                        (activation): ReLU(inplace=True)
                        (depth_conv): Conv2d(34, 34, kernel_size=(3, 3), stride=(1, 1), padding=(1, 1), groups=34, bias=False)
                        (point_conv): Conv2d(34, 34, kernel_size=(1, 1), stride=(1, 1), bias=False)
                      )
                    )
                    (child_nodes): ModuleList(
                      (0-1): 2 x None
                    )
                    (branch_bns): ModuleList(
                      (0-1): 2 x None
                    )
                  )
                )
                (branch_bns): ModuleList(
                  (0-1): 2 x None
                )
              )
              (1): TreeNode(
                (edges): ModuleList(
                  (0): PoolingLayer(
                    (pool): AvgPool2d(kernel_size=3, stride=1, padding=1)
                  )
                  (1): DepthConvLayer(
                    (bn): BatchNorm2d(34, eps=1e-05, momentum=0.1, affine=True, track_running_stats=True)
                    (activation): ReLU(inplace=True)
                    (depth_conv): Conv2d(34, 34, kernel_size=(5, 5), stride=(1, 1), padding=(2, 2), groups=34, bias=False)
                    (point_conv): Conv2d(34, 34, kernel_size=(1, 1), stride=(1, 1), bias=False)
                  )
                )
                (child_nodes): ModuleList(
                  (0): TreeNode(
                    (edges): ModuleList(
                      (0-1): 2 x DepthConvLayer(
                        (bn): BatchNorm2d(34, eps=1e-05, momentum=0.1, affine=True, track_running_stats=True)
                        (activation): ReLU(inplace=True)
                        (depth_conv): Conv2d(34, 34, kernel_size=(7, 7), stride=(1, 1), padding=(3, 3), groups=34, bias=False)
                        (point_conv): Conv2d(34, 34, kernel_size=(1, 1), stride=(1, 1), bias=False)
                      )
                    )
                    (child_nodes): ModuleList(
                      (0-1): 2 x None
                    )
                    (branch_bns): ModuleList(
                      (0-1): 2 x None
                    )
                  )
                  (1): TreeNode(
                    (edges): ModuleList(
                      (0): DepthConvLayer(
                        (bn): BatchNorm2d(34, eps=1e-05, momentum=0.1, affine=True, track_running_stats=True)
                        (activation): ReLU(inplace=True)
                        (depth_conv): Conv2d(34, 34, kernel_size=(3, 3), stride=(1, 1), padding=(2, 2), dilation=(2, 2), groups=34, bias=False)
                        (point_conv): Conv2d(34, 34, kernel_size=(1, 1), stride=(1, 1), bias=False)
                      )
                      (1): DepthConvLayer(
                        (bn): BatchNorm2d(34, eps=1e-05, momentum=0.1, affine=True, track_running_stats=True)
                        (activation): ReLU(inplace=True)
                        (depth_conv): Conv2d(34, 34, kernel_size=(3, 3), stride=(1, 1), padding=(1, 1), groups=34, bias=False)
                        (point_conv): Conv2d(34, 34, kernel_size=(1, 1), stride=(1, 1), bias=False)
                      )
                    )
                    (child_nodes): ModuleList(
                      (0-1): 2 x None
                    )
                    (branch_bns): ModuleList(
                      (0-1): 2 x None
                    )
                  )
                )
                (branch_bns): ModuleList(
                  (0-1): 2 x None
                )
              )
            )
            (branch_bns): ModuleList(
              (0-1): 2 x BatchNorm2d(34, eps=1e-05, momentum=0.1, affine=True, track_running_stats=True)
            )
          )
        )
        (branch_bns): ModuleList(
          (0): None
        )
      )
      (final_bn): BatchNorm2d(136, eps=1e-05, momentum=0.1, affine=True, track_running_stats=True)
    )
    (13): ResidualTreeBlock(
      (in_bottle): ConvLayer(
        (bn): BatchNorm2d(136, eps=1e-05, momentum=0.1, affine=True, track_running_stats=True)
        (conv): Conv2d(136, 36, kernel_size=(1, 1), stride=(1, 1), bias=False)
      )
      (out_bottle): ConvLayer(
        (bn): BatchNorm2d(36, eps=1e-05, momentum=0.1, affine=True, track_running_stats=True)
        (activation): ReLU(inplace=True)
        (conv): Conv2d(36, 144, kernel_size=(1, 1), stride=(1, 1), bias=False)
      )
      (shortcut): IdentityLayer()
      (cell): TreeNode(
        (edges): ModuleList(
          (0): ConvLayer(
            (bn): BatchNorm2d(36, eps=1e-05, momentum=0.1, affine=True, track_running_stats=True)
            (activation): ReLU(inplace=True)
            (conv): Conv2d(36, 72, kernel_size=(3, 3), stride=(1, 1), padding=(1, 1), groups=2, bias=False)
          )
        )
        (child_nodes): ModuleList(
          (0): TreeNode(
            (edges): ModuleList(
              (0-1): 2 x IdentityLayer()
            )
            (child_nodes): ModuleList(
              (0): TreeNode(
                (edges): ModuleList(
                  (0-1): 2 x PoolingLayer(
                    (pool): MaxPool2d(kernel_size=3, stride=1, padding=1, dilation=1, ceil_mode=False)
                  )
                )
                (child_nodes): ModuleList(
                  (0): TreeNode(
                    (edges): ModuleList(
                      (0): DepthConvLayer(
                        (bn): BatchNorm2d(36, eps=1e-05, momentum=0.1, affine=True, track_running_stats=True)
                        (activation): ReLU(inplace=True)
                        (depth_conv): Conv2d(36, 36, kernel_size=(7, 7), stride=(1, 1), padding=(3, 3), groups=36, bias=False)
                        (point_conv): Conv2d(36, 36, kernel_size=(1, 1), stride=(1, 1), bias=False)
                      )
                      (1): DepthConvLayer(
                        (bn): BatchNorm2d(36, eps=1e-05, momentum=0.1, affine=True, track_running_stats=True)
                        (activation): ReLU(inplace=True)
                        (depth_conv): Conv2d(36, 36, kernel_size=(3, 3), stride=(1, 1), padding=(1, 1), groups=36, bias=False)
                        (point_conv): Conv2d(36, 36, kernel_size=(1, 1), stride=(1, 1), bias=False)
                      )
                    )
                    (child_nodes): ModuleList(
                      (0-1): 2 x None
                    )
                    (branch_bns): ModuleList(
                      (0-1): 2 x None
                    )
                  )
                  (1): TreeNode(
                    (edges): ModuleList(
                      (0): DepthConvLayer(
                        (bn): BatchNorm2d(36, eps=1e-05, momentum=0.1, affine=True, track_running_stats=True)
                        (activation): ReLU(inplace=True)
                        (depth_conv): Conv2d(36, 36, kernel_size=(7, 7), stride=(1, 1), padding=(3, 3), groups=36, bias=False)
                        (point_conv): Conv2d(36, 36, kernel_size=(1, 1), stride=(1, 1), bias=False)
                      )
                      (1): DepthConvLayer(
                        (bn): BatchNorm2d(36, eps=1e-05, momentum=0.1, affine=True, track_running_stats=True)
                        (activation): ReLU(inplace=True)
                        (depth_conv): Conv2d(36, 36, kernel_size=(3, 3), stride=(1, 1), padding=(2, 2), dilation=(2, 2), groups=36, bias=False)
                        (point_conv): Conv2d(36, 36, kernel_size=(1, 1), stride=(1, 1), bias=False)
                      )
                    )
                    (child_nodes): ModuleList(
                      (0-1): 2 x None
                    )
                    (branch_bns): ModuleList(
                      (0-1): 2 x None
                    )
                  )
                )
                (branch_bns): ModuleList(
                  (0-1): 2 x None
                )
              )
              (1): TreeNode(
                (edges): ModuleList(
                  (0): DepthConvLayer(
                    (bn): BatchNorm2d(36, eps=1e-05, momentum=0.1, affine=True, track_running_stats=True)
                    (activation): ReLU(inplace=True)
                    (depth_conv): Conv2d(36, 36, kernel_size=(3, 3), stride=(1, 1), padding=(1, 1), groups=36, bias=False)
                    (point_conv): Conv2d(36, 36, kernel_size=(1, 1), stride=(1, 1), bias=False)
                  )
                  (1): PoolingLayer(
                    (pool): MaxPool2d(kernel_size=3, stride=1, padding=1, dilation=1, ceil_mode=False)
                  )
                )
                (child_nodes): ModuleList(
                  (0): TreeNode(
                    (edges): ModuleList(
                      (0): PoolingLayer(
                        (pool): AvgPool2d(kernel_size=3, stride=1, padding=1)
                      )
                      (1): DepthConvLayer(
                        (bn): BatchNorm2d(36, eps=1e-05, momentum=0.1, affine=True, track_running_stats=True)
                        (activation): ReLU(inplace=True)
                        (depth_conv): Conv2d(36, 36, kernel_size=(5, 5), stride=(1, 1), padding=(2, 2), groups=36, bias=False)
                        (point_conv): Conv2d(36, 36, kernel_size=(1, 1), stride=(1, 1), bias=False)
                      )
                    )
                    (child_nodes): ModuleList(
                      (0-1): 2 x None
                    )
                    (branch_bns): ModuleList(
                      (0-1): 2 x None
                    )
                  )
                  (1): TreeNode(
                    (edges): ModuleList(
                      (0): DepthConvLayer(
                        (bn): BatchNorm2d(36, eps=1e-05, momentum=0.1, affine=True, track_running_stats=True)
                        (activation): ReLU(inplace=True)
                        (depth_conv): Conv2d(36, 36, kernel_size=(7, 7), stride=(1, 1), padding=(3, 3), groups=36, bias=False)
                        (point_conv): Conv2d(36, 36, kernel_size=(1, 1), stride=(1, 1), bias=False)
                      )
                      (1): IdentityLayer()
                    )
                    (child_nodes): ModuleList(
                      (0-1): 2 x None
                    )
                    (branch_bns): ModuleList(
                      (0-1): 2 x None
                    )
                  )
                )
                (branch_bns): ModuleList(
                  (0-1): 2 x None
                )
              )
            )
            (branch_bns): ModuleList(
              (0-1): 2 x BatchNorm2d(36, eps=1e-05, momentum=0.1, affine=True, track_running_stats=True)
            )
          )
        )
        (branch_bns): ModuleList(
          (0): None
        )
      )
      (final_bn): BatchNorm2d(144, eps=1e-05, momentum=0.1, affine=True, track_running_stats=True)
    )
    (14): ResidualTreeBlock(
      (in_bottle): ConvLayer(
        (bn): BatchNorm2d(144, eps=1e-05, momentum=0.1, affine=True, track_running_stats=True)
        (conv): Conv2d(144, 38, kernel_size=(1, 1), stride=(1, 1), bias=False)
      )
      (out_bottle): ConvLayer(
        (bn): BatchNorm2d(38, eps=1e-05, momentum=0.1, affine=True, track_running_stats=True)
        (activation): ReLU(inplace=True)
        (conv): Conv2d(38, 152, kernel_size=(1, 1), stride=(1, 1), bias=False)
      )
      (shortcut): IdentityLayer()
      (cell): TreeNode(
        (edges): ModuleList(
          (0): ConvLayer(
            (bn): BatchNorm2d(38, eps=1e-05, momentum=0.1, affine=True, track_running_stats=True)
            (activation): ReLU(inplace=True)
            (conv): Conv2d(38, 76, kernel_size=(3, 3), stride=(1, 1), padding=(1, 1), groups=2, bias=False)
          )
        )
        (child_nodes): ModuleList(
          (0): TreeNode(
            (edges): ModuleList(
              (0-1): 2 x IdentityLayer()
            )
            (child_nodes): ModuleList(
              (0): TreeNode(
                (edges): ModuleList(
                  (0): DepthConvLayer(
                    (bn): BatchNorm2d(38, eps=1e-05, momentum=0.1, affine=True, track_running_stats=True)
                    (activation): ReLU(inplace=True)
                    (depth_conv): Conv2d(38, 38, kernel_size=(3, 3), stride=(1, 1), padding=(1, 1), groups=38, bias=False)
                    (point_conv): Conv2d(38, 38, kernel_size=(1, 1), stride=(1, 1), bias=False)
                  )
                  (1): DepthConvLayer(
                    (bn): BatchNorm2d(38, eps=1e-05, momentum=0.1, affine=True, track_running_stats=True)
                    (activation): ReLU(inplace=True)
                    (depth_conv): Conv2d(38, 38, kernel_size=(7, 7), stride=(1, 1), padding=(3, 3), groups=38, bias=False)
                    (point_conv): Conv2d(38, 38, kernel_size=(1, 1), stride=(1, 1), bias=False)
                  )
                )
                (child_nodes): ModuleList(
                  (0): TreeNode(
                    (edges): ModuleList(
                      (0): PoolingLayer(
                        (pool): MaxPool2d(kernel_size=3, stride=1, padding=1, dilation=1, ceil_mode=False)
                      )
                      (1): DepthConvLayer(
                        (bn): BatchNorm2d(38, eps=1e-05, momentum=0.1, affine=True, track_running_stats=True)
                        (activation): ReLU(inplace=True)
                        (depth_conv): Conv2d(38, 38, kernel_size=(3, 3), stride=(1, 1), padding=(2, 2), dilation=(2, 2), groups=38, bias=False)
                        (point_conv): Conv2d(38, 38, kernel_size=(1, 1), stride=(1, 1), bias=False)
                      )
                    )
                    (child_nodes): ModuleList(
                      (0-1): 2 x None
                    )
                    (branch_bns): ModuleList(
                      (0-1): 2 x None
                    )
                  )
                  (1): TreeNode(
                    (edges): ModuleList(
                      (0): DepthConvLayer(
                        (bn): BatchNorm2d(38, eps=1e-05, momentum=0.1, affine=True, track_running_stats=True)
                        (activation): ReLU(inplace=True)
                        (depth_conv): Conv2d(38, 38, kernel_size=(7, 7), stride=(1, 1), padding=(3, 3), groups=38, bias=False)
                        (point_conv): Conv2d(38, 38, kernel_size=(1, 1), stride=(1, 1), bias=False)
                      )
                      (1): DepthConvLayer(
                        (bn): BatchNorm2d(38, eps=1e-05, momentum=0.1, affine=True, track_running_stats=True)
                        (activation): ReLU(inplace=True)
                        (depth_conv): Conv2d(38, 38, kernel_size=(3, 3), stride=(1, 1), padding=(2, 2), dilation=(2, 2), groups=38, bias=False)
                        (point_conv): Conv2d(38, 38, kernel_size=(1, 1), stride=(1, 1), bias=False)
                      )
                    )
                    (child_nodes): ModuleList(
                      (0-1): 2 x None
                    )
                    (branch_bns): ModuleList(
                      (0-1): 2 x None
                    )
                  )
                )
                (branch_bns): ModuleList(
                  (0-1): 2 x None
                )
              )
              (1): TreeNode(
                (edges): ModuleList(
                  (0): DepthConvLayer(
                    (bn): BatchNorm2d(38, eps=1e-05, momentum=0.1, affine=True, track_running_stats=True)
                    (activation): ReLU(inplace=True)
                    (depth_conv): Conv2d(38, 38, kernel_size=(5, 5), stride=(1, 1), padding=(2, 2), groups=38, bias=False)
                    (point_conv): Conv2d(38, 38, kernel_size=(1, 1), stride=(1, 1), bias=False)
                  )
                  (1): DepthConvLayer(
                    (bn): BatchNorm2d(38, eps=1e-05, momentum=0.1, affine=True, track_running_stats=True)
                    (activation): ReLU(inplace=True)
                    (depth_conv): Conv2d(38, 38, kernel_size=(3, 3), stride=(1, 1), padding=(2, 2), dilation=(2, 2), groups=38, bias=False)
                    (point_conv): Conv2d(38, 38, kernel_size=(1, 1), stride=(1, 1), bias=False)
                  )
                )
                (child_nodes): ModuleList(
                  (0): TreeNode(
                    (edges): ModuleList(
                      (0): IdentityLayer()
                      (1): DepthConvLayer(
                        (bn): BatchNorm2d(38, eps=1e-05, momentum=0.1, affine=True, track_running_stats=True)
                        (activation): ReLU(inplace=True)
                        (depth_conv): Conv2d(38, 38, kernel_size=(3, 3), stride=(1, 1), padding=(1, 1), groups=38, bias=False)
                        (point_conv): Conv2d(38, 38, kernel_size=(1, 1), stride=(1, 1), bias=False)
                      )
                    )
                    (child_nodes): ModuleList(
                      (0-1): 2 x None
                    )
                    (branch_bns): ModuleList(
                      (0-1): 2 x None
                    )
                  )
                  (1): TreeNode(
                    (edges): ModuleList(
                      (0): DepthConvLayer(
                        (bn): BatchNorm2d(38, eps=1e-05, momentum=0.1, affine=True, track_running_stats=True)
                        (activation): ReLU(inplace=True)
                        (depth_conv): Conv2d(38, 38, kernel_size=(7, 7), stride=(1, 1), padding=(3, 3), groups=38, bias=False)
                        (point_conv): Conv2d(38, 38, kernel_size=(1, 1), stride=(1, 1), bias=False)
                      )
                      (1): DepthConvLayer(
                        (bn): BatchNorm2d(38, eps=1e-05, momentum=0.1, affine=True, track_running_stats=True)
                        (activation): ReLU(inplace=True)
                        (depth_conv): Conv2d(38, 38, kernel_size=(3, 3), stride=(1, 1), padding=(1, 1), groups=38, bias=False)
                        (point_conv): Conv2d(38, 38, kernel_size=(1, 1), stride=(1, 1), bias=False)
                      )
                    )
                    (child_nodes): ModuleList(
                      (0-1): 2 x None
                    )
                    (branch_bns): ModuleList(
                      (0-1): 2 x None
                    )
                  )
                )
                (branch_bns): ModuleList(
                  (0-1): 2 x None
                )
              )
            )
            (branch_bns): ModuleList(
              (0-1): 2 x BatchNorm2d(38, eps=1e-05, momentum=0.1, affine=True, track_running_stats=True)
            )
          )
        )
        (branch_bns): ModuleList(
          (0): None
        )
      )
      (final_bn): BatchNorm2d(152, eps=1e-05, momentum=0.1, affine=True, track_running_stats=True)
    )
    (15): ResidualTreeBlock(
      (in_bottle): ConvLayer(
        (bn): BatchNorm2d(152, eps=1e-05, momentum=0.1, affine=True, track_running_stats=True)
        (conv): Conv2d(152, 38, kernel_size=(1, 1), stride=(1, 1), bias=False)
      )
      (out_bottle): ConvLayer(
        (bn): BatchNorm2d(38, eps=1e-05, momentum=0.1, affine=True, track_running_stats=True)
        (activation): ReLU(inplace=True)
        (conv): Conv2d(38, 152, kernel_size=(1, 1), stride=(1, 1), bias=False)
      )
      (shortcut): IdentityLayer()
      (cell): TreeNode(
        (edges): ModuleList(
          (0): ConvLayer(
            (bn): BatchNorm2d(38, eps=1e-05, momentum=0.1, affine=True, track_running_stats=True)
            (activation): ReLU(inplace=True)
            (conv): Conv2d(38, 76, kernel_size=(3, 3), stride=(1, 1), padding=(1, 1), groups=2, bias=False)
          )
        )
        (child_nodes): ModuleList(
          (0): TreeNode(
            (edges): ModuleList(
              (0-1): 2 x IdentityLayer()
            )
            (child_nodes): ModuleList(
              (0): TreeNode(
                (edges): ModuleList(
                  (0): DepthConvLayer(
                    (bn): BatchNorm2d(38, eps=1e-05, momentum=0.1, affine=True, track_running_stats=True)
                    (activation): ReLU(inplace=True)
                    (depth_conv): Conv2d(38, 38, kernel_size=(3, 3), stride=(1, 1), padding=(2, 2), dilation=(2, 2), groups=38, bias=False)
                    (point_conv): Conv2d(38, 38, kernel_size=(1, 1), stride=(1, 1), bias=False)
                  )
                  (1): PoolingLayer(
                    (pool): AvgPool2d(kernel_size=3, stride=1, padding=1)
                  )
                )
                (child_nodes): ModuleList(
                  (0): TreeNode(
                    (edges): ModuleList(
                      (0): PoolingLayer(
                        (pool): MaxPool2d(kernel_size=3, stride=1, padding=1, dilation=1, ceil_mode=False)
                      )
                      (1): DepthConvLayer(
                        (bn): BatchNorm2d(38, eps=1e-05, momentum=0.1, affine=True, track_running_stats=True)
                        (activation): ReLU(inplace=True)
                        (depth_conv): Conv2d(38, 38, kernel_size=(3, 3), stride=(1, 1), padding=(1, 1), groups=38, bias=False)
                        (point_conv): Conv2d(38, 38, kernel_size=(1, 1), stride=(1, 1), bias=False)
                      )
                    )
                    (child_nodes): ModuleList(
                      (0-1): 2 x None
                    )
                    (branch_bns): ModuleList(
                      (0-1): 2 x None
                    )
                  )
                  (1): TreeNode(
                    (edges): ModuleList(
                      (0-1): 2 x DepthConvLayer(
                        (bn): BatchNorm2d(38, eps=1e-05, momentum=0.1, affine=True, track_running_stats=True)
                        (activation): ReLU(inplace=True)
                        (depth_conv): Conv2d(38, 38, kernel_size=(3, 3), stride=(1, 1), padding=(2, 2), dilation=(2, 2), groups=38, bias=False)
                        (point_conv): Conv2d(38, 38, kernel_size=(1, 1), stride=(1, 1), bias=False)
                      )
                    )
                    (child_nodes): ModuleList(
                      (0-1): 2 x None
                    )
                    (branch_bns): ModuleList(
                      (0-1): 2 x None
                    )
                  )
                )
                (branch_bns): ModuleList(
                  (0-1): 2 x None
                )
              )
              (1): TreeNode(
                (edges): ModuleList(
                  (0): PoolingLayer(
                    (pool): AvgPool2d(kernel_size=3, stride=1, padding=1)
                  )
                  (1): IdentityLayer()
                )
                (child_nodes): ModuleList(
                  (0-1): 2 x TreeNode(
                    (edges): ModuleList(
                      (0): DepthConvLayer(
                        (bn): BatchNorm2d(38, eps=1e-05, momentum=0.1, affine=True, track_running_stats=True)
                        (activation): ReLU(inplace=True)
                        (depth_conv): Conv2d(38, 38, kernel_size=(5, 5), stride=(1, 1), padding=(2, 2), groups=38, bias=False)
                        (point_conv): Conv2d(38, 38, kernel_size=(1, 1), stride=(1, 1), bias=False)
                      )
                      (1): IdentityLayer()
                    )
                    (child_nodes): ModuleList(
                      (0-1): 2 x None
                    )
                    (branch_bns): ModuleList(
                      (0-1): 2 x None
                    )
                  )
                )
                (branch_bns): ModuleList(
                  (0-1): 2 x None
                )
              )
            )
            (branch_bns): ModuleList(
              (0-1): 2 x BatchNorm2d(38, eps=1e-05, momentum=0.1, affine=True, track_running_stats=True)
            )
          )
        )
        (branch_bns): ModuleList(
          (0): None
        )
      )
      (final_bn): BatchNorm2d(152, eps=1e-05, momentum=0.1, affine=True, track_running_stats=True)
    )
    (16): ResidualTreeBlock(
      (in_bottle): ConvLayer(
        (bn): BatchNorm2d(152, eps=1e-05, momentum=0.1, affine=True, track_running_stats=True)
        (conv): Conv2d(152, 40, kernel_size=(1, 1), stride=(1, 1), bias=False)
      )
      (out_bottle): ConvLayer(
        (bn): BatchNorm2d(40, eps=1e-05, momentum=0.1, affine=True, track_running_stats=True)
        (activation): ReLU(inplace=True)
        (conv): Conv2d(40, 160, kernel_size=(1, 1), stride=(1, 1), bias=False)
      )
      (shortcut): IdentityLayer()
      (cell): TreeNode(
        (edges): ModuleList(
          (0): ConvLayer(
            (bn): BatchNorm2d(40, eps=1e-05, momentum=0.1, affine=True, track_running_stats=True)
            (activation): ReLU(inplace=True)
            (conv): Conv2d(40, 80, kernel_size=(3, 3), stride=(1, 1), padding=(1, 1), groups=2, bias=False)
          )
        )
        (child_nodes): ModuleList(
          (0): TreeNode(
            (edges): ModuleList(
              (0-1): 2 x IdentityLayer()
            )
            (child_nodes): ModuleList(
              (0): TreeNode(
                (edges): ModuleList(
                  (0): DepthConvLayer(
                    (bn): BatchNorm2d(40, eps=1e-05, momentum=0.1, affine=True, track_running_stats=True)
                    (activation): ReLU(inplace=True)
                    (depth_conv): Conv2d(40, 40, kernel_size=(5, 5), stride=(1, 1), padding=(2, 2), groups=40, bias=False)
                    (point_conv): Conv2d(40, 40, kernel_size=(1, 1), stride=(1, 1), bias=False)
                  )
                  (1): IdentityLayer()
                )
                (child_nodes): ModuleList(
                  (0): TreeNode(
                    (edges): ModuleList(
                      (0): DepthConvLayer(
                        (bn): BatchNorm2d(40, eps=1e-05, momentum=0.1, affine=True, track_running_stats=True)
                        (activation): ReLU(inplace=True)
                        (depth_conv): Conv2d(40, 40, kernel_size=(3, 3), stride=(1, 1), padding=(2, 2), dilation=(2, 2), groups=40, bias=False)
                        (point_conv): Conv2d(40, 40, kernel_size=(1, 1), stride=(1, 1), bias=False)
                      )
                      (1): DepthConvLayer(
                        (bn): BatchNorm2d(40, eps=1e-05, momentum=0.1, affine=True, track_running_stats=True)
                        (activation): ReLU(inplace=True)
                        (depth_conv): Conv2d(40, 40, kernel_size=(5, 5), stride=(1, 1), padding=(2, 2), groups=40, bias=False)
                        (point_conv): Conv2d(40, 40, kernel_size=(1, 1), stride=(1, 1), bias=False)
                      )
                    )
                    (child_nodes): ModuleList(
                      (0-1): 2 x None
                    )
                    (branch_bns): ModuleList(
                      (0-1): 2 x None
                    )
                  )
                  (1): TreeNode(
                    (edges): ModuleList(
…
                        (pool): AvgPool2d(kernel_size=3, stride=1, padding=1)
                      )
                    )
                    (child_nodes): ModuleList(
                      (0-1): 2 x None
                    )
                    (branch_bns): ModuleList(
                      (0-1): 2 x None
                    )
                  )
                )
                (branch_bns): ModuleList(
                  (0-1): 2 x None
                )
              )
              (1): TreeNode(
                (edges): ModuleList(
                  (0): DepthConvLayer(
                    (bn): BatchNorm2d(40, eps=1e-05, momentum=0.1, affine=True, track_running_stats=True)
                    (activation): ReLU(inplace=True)
                    (depth_conv): Conv2d(40, 40, kernel_size=(3, 3), stride=(1, 1), padding=(2, 2), dilation=(2, 2), groups=40, bias=False)
                    (point_conv): Conv2d(40, 40, kernel_size=(1, 1), stride=(1, 1), bias=False)
                  )
                  (1): DepthConvLayer(
                    (bn): BatchNorm2d(40, eps=1e-05, momentum=0.1, affine=True, track_running_stats=True)
                    (activation): ReLU(inplace=True)
                    (depth_conv): Conv2d(40, 40, kernel_size=(5, 5), stride=(1, 1), padding=(2, 2), groups=40, bias=False)
                    (point_conv): Conv2d(40, 40, kernel_size=(1, 1), stride=(1, 1), bias=False)
                  )
                )
                (child_nodes): ModuleList(
                  (0): TreeNode(
                    (edges): ModuleList(
                      (0-1): 2 x DepthConvLayer(
                        (bn): BatchNorm2d(40, eps=1e-05, momentum=0.1, affine=True, track_running_stats=True)
                        (activation): ReLU(inplace=True)
                        (depth_conv): Conv2d(40, 40, kernel_size=(5, 5), stride=(1, 1), padding=(2, 2), groups=40, bias=False)
                        (point_conv): Conv2d(40, 40, kernel_size=(1, 1), stride=(1, 1), bias=False)
                      )
                    )
                    (child_nodes): ModuleList(
                      (0-1): 2 x None
                    )
                    (branch_bns): ModuleList(
                      (0-1): 2 x None
                    )
                  )
                  (1): TreeNode(
                    (edges): ModuleList(
                      (0): DepthConvLayer(
                        (bn): BatchNorm2d(40, eps=1e-05, momentum=0.1, affine=True, track_running_stats=True)
                        (activation): ReLU(inplace=True)
                        (depth_conv): Conv2d(40, 40, kernel_size=(7, 7), stride=(1, 1), padding=(3, 3), groups=40, bias=False)
                        (point_conv): Conv2d(40, 40, kernel_size=(1, 1), stride=(1, 1), bias=False)
                      )
                      (1): DepthConvLayer(
                        (bn): BatchNorm2d(40, eps=1e-05, momentum=0.1, affine=True, track_running_stats=True)
                        (activation): ReLU(inplace=True)
                        (depth_conv): Conv2d(40, 40, kernel_size=(3, 3), stride=(1, 1), padding=(1, 1), groups=40, bias=False)
                        (point_conv): Conv2d(40, 40, kernel_size=(1, 1), stride=(1, 1), bias=False)
                      )
                    )
                    (child_nodes): ModuleList(
                      (0-1): 2 x None
                    )
                    (branch_bns): ModuleList(
                      (0-1): 2 x None
                    )
                  )
                )
                (branch_bns): ModuleList(
                  (0-1): 2 x None
                )
              )
            )
            (branch_bns): ModuleList(
              (0-1): 2 x BatchNorm2d(40, eps=1e-05, momentum=0.1, affine=True, track_running_stats=True)
            )
          )
        )
        (branch_bns): ModuleList(
          (0): None
        )
      )
      (final_bn): BatchNorm2d(160, eps=1e-05, momentum=0.1, affine=True, track_running_stats=True)
    )
    (17): ResidualTreeBlock(
      (in_bottle): ConvLayer(
        (bn): BatchNorm2d(160, eps=1e-05, momentum=0.1, affine=True, track_running_stats=True)
        (conv): Conv2d(160, 42, kernel_size=(1, 1), stride=(1, 1), bias=False)
      )
      (out_bottle): ConvLayer(
        (bn): BatchNorm2d(42, eps=1e-05, momentum=0.1, affine=True, track_running_stats=True)
        (activation): ReLU(inplace=True)
        (conv): Conv2d(42, 168, kernel_size=(1, 1), stride=(1, 1), bias=False)
      )
      (shortcut): IdentityLayer()
      (cell): TreeNode(
        (edges): ModuleList(
          (0): ConvLayer(
            (bn): BatchNorm2d(42, eps=1e-05, momentum=0.1, affine=True, track_running_stats=True)
            (activation): ReLU(inplace=True)
            (conv): Conv2d(42, 84, kernel_size=(3, 3), stride=(1, 1), padding=(1, 1), groups=2, bias=False)
          )
        )
        (child_nodes): ModuleList(
          (0): TreeNode(
            (edges): ModuleList(
              (0-1): 2 x IdentityLayer()
            )
            (child_nodes): ModuleList(
              (0): TreeNode(
                (edges): ModuleList(
                  (0): DepthConvLayer(
                    (bn): BatchNorm2d(42, eps=1e-05, momentum=0.1, affine=True, track_running_stats=True)
                    (activation): ReLU(inplace=True)
                    (depth_conv): Conv2d(42, 42, kernel_size=(7, 7), stride=(1, 1), padding=(3, 3), groups=42, bias=False)
                    (point_conv): Conv2d(42, 42, kernel_size=(1, 1), stride=(1, 1), bias=False)
                  )
                  (1): DepthConvLayer(
                    (bn): BatchNorm2d(42, eps=1e-05, momentum=0.1, affine=True, track_running_stats=True)
                    (activation): ReLU(inplace=True)
                    (depth_conv): Conv2d(42, 42, kernel_size=(5, 5), stride=(1, 1), padding=(2, 2), groups=42, bias=False)
                    (point_conv): Conv2d(42, 42, kernel_size=(1, 1), stride=(1, 1), bias=False)
                  )
                )
                (child_nodes): ModuleList(
                  (0): TreeNode(
                    (edges): ModuleList(
                      (0-1): 2 x DepthConvLayer(
                        (bn): BatchNorm2d(42, eps=1e-05, momentum=0.1, affine=True, track_running_stats=True)
                        (activation): ReLU(inplace=True)
                        (depth_conv): Conv2d(42, 42, kernel_size=(5, 5), stride=(1, 1), padding=(2, 2), groups=42, bias=False)
                        (point_conv): Conv2d(42, 42, kernel_size=(1, 1), stride=(1, 1), bias=False)
                      )
                    )
                    (child_nodes): ModuleList(
                      (0-1): 2 x None
                    )
                    (branch_bns): ModuleList(
                      (0-1): 2 x None
                    )
                  )
                  (1): TreeNode(
                    (edges): ModuleList(
                      (0): DepthConvLayer(
                        (bn): BatchNorm2d(42, eps=1e-05, momentum=0.1, affine=True, track_running_stats=True)
                        (activation): ReLU(inplace=True)
                        (depth_conv): Conv2d(42, 42, kernel_size=(3, 3), stride=(1, 1), padding=(2, 2), dilation=(2, 2), groups=42, bias=False)
                        (point_conv): Conv2d(42, 42, kernel_size=(1, 1), stride=(1, 1), bias=False)
                      )
                      (1): DepthConvLayer(
                        (bn): BatchNorm2d(42, eps=1e-05, momentum=0.1, affine=True, track_running_stats=True)
                        (activation): ReLU(inplace=True)
                        (depth_conv): Conv2d(42, 42, kernel_size=(3, 3), stride=(1, 1), padding=(1, 1), groups=42, bias=False)
                        (point_conv): Conv2d(42, 42, kernel_size=(1, 1), stride=(1, 1), bias=False)
                      )
                    )
                    (child_nodes): ModuleList(
                      (0-1): 2 x None
                    )
                    (branch_bns): ModuleList(
                      (0-1): 2 x None
                    )
                  )
                )
                (branch_bns): ModuleList(
                  (0-1): 2 x None
                )
              )
              (1): TreeNode(
                (edges): ModuleList(
                  (0): IdentityLayer()
                  (1): DepthConvLayer(
                    (bn): BatchNorm2d(42, eps=1e-05, momentum=0.1, affine=True, track_running_stats=True)
                    (activation): ReLU(inplace=True)
                    (depth_conv): Conv2d(42, 42, kernel_size=(3, 3), stride=(1, 1), padding=(2, 2), dilation=(2, 2), groups=42, bias=False)
                    (point_conv): Conv2d(42, 42, kernel_size=(1, 1), stride=(1, 1), bias=False)
                  )
                )
                (child_nodes): ModuleList(
                  (0): TreeNode(
                    (edges): ModuleList(
                      (0): PoolingLayer(
                        (pool): MaxPool2d(kernel_size=3, stride=1, padding=1, dilation=1, ceil_mode=False)
                      )
                      (1): DepthConvLayer(
                        (bn): BatchNorm2d(42, eps=1e-05, momentum=0.1, affine=True, track_running_stats=True)
                        (activation): ReLU(inplace=True)
                        (depth_conv): Conv2d(42, 42, kernel_size=(7, 7), stride=(1, 1), padding=(3, 3), groups=42, bias=False)
                        (point_conv): Conv2d(42, 42, kernel_size=(1, 1), stride=(1, 1), bias=False)
                      )
                    )
                    (child_nodes): ModuleList(
                      (0-1): 2 x None
                    )
                    (branch_bns): ModuleList(
                      (0-1): 2 x None
                    )
                  )
                  (1): TreeNode(
                    (edges): ModuleList(
                      (0): DepthConvLayer(
                        (bn): BatchNorm2d(42, eps=1e-05, momentum=0.1, affine=True, track_running_stats=True)
                        (activation): ReLU(inplace=True)
                        (depth_conv): Conv2d(42, 42, kernel_size=(3, 3), stride=(1, 1), padding=(1, 1), groups=42, bias=False)
                        (point_conv): Conv2d(42, 42, kernel_size=(1, 1), stride=(1, 1), bias=False)
                      )
                      (1): DepthConvLayer(
                        (bn): BatchNorm2d(42, eps=1e-05, momentum=0.1, affine=True, track_running_stats=True)
                        (activation): ReLU(inplace=True)
                        (depth_conv): Conv2d(42, 42, kernel_size=(7, 7), stride=(1, 1), padding=(3, 3), groups=42, bias=False)
                        (point_conv): Conv2d(42, 42, kernel_size=(1, 1), stride=(1, 1), bias=False)
                      )
                    )
                    (child_nodes): ModuleList(
                      (0-1): 2 x None
                    )
                    (branch_bns): ModuleList(
                      (0-1): 2 x None
                    )
                  )
                )
                (branch_bns): ModuleList(
                  (0-1): 2 x None
                )
              )
            )
            (branch_bns): ModuleList(
              (0-1): 2 x BatchNorm2d(42, eps=1e-05, momentum=0.1, affine=True, track_running_stats=True)
            )
          )
        )
        (branch_bns): ModuleList(
          (0): None
        )
      )
      (final_bn): BatchNorm2d(168, eps=1e-05, momentum=0.1, affine=True, track_running_stats=True)
    )
    (18): ResidualTreeBlock(
      (in_bottle): ConvLayer(
        (bn): BatchNorm2d(168, eps=1e-05, momentum=0.1, affine=True, track_running_stats=True)
        (conv): Conv2d(168, 44, kernel_size=(1, 1), stride=(1, 1), bias=False)
      )
      (out_bottle): ConvLayer(
        (bn): BatchNorm2d(44, eps=1e-05, momentum=0.1, affine=True, track_running_stats=True)
        (activation): ReLU(inplace=True)
        (conv): Conv2d(44, 176, kernel_size=(1, 1), stride=(1, 1), bias=False)
      )
      (shortcut): IdentityLayer()
      (cell): TreeNode(
        (edges): ModuleList(
          (0): ConvLayer(
            (bn): BatchNorm2d(44, eps=1e-05, momentum=0.1, affine=True, track_running_stats=True)
            (activation): ReLU(inplace=True)
            (conv): Conv2d(44, 88, kernel_size=(3, 3), stride=(1, 1), padding=(1, 1), groups=2, bias=False)
          )
        )
        (child_nodes): ModuleList(
          (0): TreeNode(
            (edges): ModuleList(
              (0-1): 2 x IdentityLayer()
            )
            (child_nodes): ModuleList(
              (0): TreeNode(
                (edges): ModuleList(
                  (0): PoolingLayer(
                    (pool): MaxPool2d(kernel_size=3, stride=1, padding=1, dilation=1, ceil_mode=False)
                  )
                  (1): DepthConvLayer(
                    (bn): BatchNorm2d(44, eps=1e-05, momentum=0.1, affine=True, track_running_stats=True)
                    (activation): ReLU(inplace=True)
                    (depth_conv): Conv2d(44, 44, kernel_size=(3, 3), stride=(1, 1), padding=(2, 2), dilation=(2, 2), groups=44, bias=False)
                    (point_conv): Conv2d(44, 44, kernel_size=(1, 1), stride=(1, 1), bias=False)
                  )
                )
                (child_nodes): ModuleList(
                  (0): TreeNode(
                    (edges): ModuleList(
                      (0-1): 2 x IdentityLayer()
                    )
                    (child_nodes): ModuleList(
                      (0-1): 2 x None
                    )
                    (branch_bns): ModuleList(
                      (0-1): 2 x None
                    )
                  )
                  (1): TreeNode(
                    (edges): ModuleList(
                      (0): DepthConvLayer(
                        (bn): BatchNorm2d(44, eps=1e-05, momentum=0.1, affine=True, track_running_stats=True)
                        (activation): ReLU(inplace=True)
                        (depth_conv): Conv2d(44, 44, kernel_size=(3, 3), stride=(1, 1), padding=(1, 1), groups=44, bias=False)
                        (point_conv): Conv2d(44, 44, kernel_size=(1, 1), stride=(1, 1), bias=False)
                      )
                      (1): IdentityLayer()
                    )
                    (child_nodes): ModuleList(
                      (0-1): 2 x None
                    )
                    (branch_bns): ModuleList(
                      (0-1): 2 x None
                    )
                  )
                )
                (branch_bns): ModuleList(
                  (0-1): 2 x None
                )
              )
              (1): TreeNode(
                (edges): ModuleList(
                  (0): DepthConvLayer(
                    (bn): BatchNorm2d(44, eps=1e-05, momentum=0.1, affine=True, track_running_stats=True)
                    (activation): ReLU(inplace=True)
                    (depth_conv): Conv2d(44, 44, kernel_size=(7, 7), stride=(1, 1), padding=(3, 3), groups=44, bias=False)
                    (point_conv): Conv2d(44, 44, kernel_size=(1, 1), stride=(1, 1), bias=False)
                  )
                  (1): PoolingLayer(
                    (pool): MaxPool2d(kernel_size=3, stride=1, padding=1, dilation=1, ceil_mode=False)
                  )
                )
                (child_nodes): ModuleList(
                  (0): TreeNode(
                    (edges): ModuleList(
                      (0): DepthConvLayer(
                        (bn): BatchNorm2d(44, eps=1e-05, momentum=0.1, affine=True, track_running_stats=True)
                        (activation): ReLU(inplace=True)
                        (depth_conv): Conv2d(44, 44, kernel_size=(5, 5), stride=(1, 1), padding=(2, 2), groups=44, bias=False)
                        (point_conv): Conv2d(44, 44, kernel_size=(1, 1), stride=(1, 1), bias=False)
                      )
                      (1): DepthConvLayer(
                        (bn): BatchNorm2d(44, eps=1e-05, momentum=0.1, affine=True, track_running_stats=True)
                        (activation): ReLU(inplace=True)
                        (depth_conv): Conv2d(44, 44, kernel_size=(7, 7), stride=(1, 1), padding=(3, 3), groups=44, bias=False)
                        (point_conv): Conv2d(44, 44, kernel_size=(1, 1), stride=(1, 1), bias=False)
                      )
                    )
                    (child_nodes): ModuleList(
                      (0-1): 2 x None
                    )
                    (branch_bns): ModuleList(
                      (0-1): 2 x None
                    )
                  )
                  (1): TreeNode(
                    (edges): ModuleList(
                      (0): IdentityLayer()
                      (1): DepthConvLayer(
                        (bn): BatchNorm2d(44, eps=1e-05, momentum=0.1, affine=True, track_running_stats=True)
                        (activation): ReLU(inplace=True)
                        (depth_conv): Conv2d(44, 44, kernel_size=(3, 3), stride=(1, 1), padding=(2, 2), dilation=(2, 2), groups=44, bias=False)
                        (point_conv): Conv2d(44, 44, kernel_size=(1, 1), stride=(1, 1), bias=False)
                      )
                    )
                    (child_nodes): ModuleList(
                      (0-1): 2 x None
                    )
                    (branch_bns): ModuleList(
                      (0-1): 2 x None
                    )
                  )
                )
                (branch_bns): ModuleList(
                  (0-1): 2 x None
                )
              )
            )
            (branch_bns): ModuleList(
              (0-1): 2 x BatchNorm2d(44, eps=1e-05, momentum=0.1, affine=True, track_running_stats=True)
            )
          )
        )
        (branch_bns): ModuleList(
          (0): None
        )
      )
      (final_bn): BatchNorm2d(176, eps=1e-05, momentum=0.1, affine=True, track_running_stats=True)
    )
    (19): ResidualTreeBlock(
      (in_bottle): ConvLayer(
        (bn): BatchNorm2d(176, eps=1e-05, momentum=0.1, affine=True, track_running_stats=True)
        (conv): Conv2d(176, 46, kernel_size=(1, 1), stride=(1, 1), bias=False)
      )
      (out_bottle): ConvLayer(
        (bn): BatchNorm2d(46, eps=1e-05, momentum=0.1, affine=True, track_running_stats=True)
        (activation): ReLU(inplace=True)
        (conv): Conv2d(46, 184, kernel_size=(1, 1), stride=(1, 1), bias=False)
      )
      (shortcut): PoolingLayer(
        (pool): AvgPool2d(kernel_size=2, stride=2, padding=0)
      )
      (cell): TreeNode(
        (edges): ModuleList(
          (0): ConvLayer(
            (bn): BatchNorm2d(46, eps=1e-05, momentum=0.1, affine=True, track_running_stats=True)
            (activation): ReLU(inplace=True)
            (conv): Conv2d(46, 92, kernel_size=(3, 3), stride=(2, 2), padding=(1, 1), groups=2, bias=False)
          )
        )
        (child_nodes): ModuleList(
          (0): TreeNode(
            (edges): ModuleList(
              (0-1): 2 x IdentityLayer()
            )
            (child_nodes): ModuleList(
              (0): TreeNode(
                (edges): ModuleList(
                  (0): DepthConvLayer(
                    (bn): BatchNorm2d(46, eps=1e-05, momentum=0.1, affine=True, track_running_stats=True)
                    (activation): ReLU(inplace=True)
                    (depth_conv): Conv2d(46, 46, kernel_size=(3, 3), stride=(1, 1), padding=(2, 2), dilation=(2, 2), groups=46, bias=False)
                    (point_conv): Conv2d(46, 46, kernel_size=(1, 1), stride=(1, 1), bias=False)
                  )
                  (1): PoolingLayer(
                    (pool): MaxPool2d(kernel_size=3, stride=1, padding=1, dilation=1, ceil_mode=False)
                  )
                )
                (child_nodes): ModuleList(
                  (0): TreeNode(
                    (edges): ModuleList(
                      (0): DepthConvLayer(
                        (bn): BatchNorm2d(46, eps=1e-05, momentum=0.1, affine=True, track_running_stats=True)
                        (activation): ReLU(inplace=True)
                        (depth_conv): Conv2d(46, 46, kernel_size=(5, 5), stride=(1, 1), padding=(2, 2), groups=46, bias=False)
                        (point_conv): Conv2d(46, 46, kernel_size=(1, 1), stride=(1, 1), bias=False)
                      )
                      (1): PoolingLayer(
                        (pool): AvgPool2d(kernel_size=3, stride=1, padding=1)
                      )
                    )
                    (child_nodes): ModuleList(
                      (0-1): 2 x None
                    )
                    (branch_bns): ModuleList(
                      (0-1): 2 x None
                    )
                  )
                  (1): TreeNode(
                    (edges): ModuleList(
                      (0): PoolingLayer(
                        (pool): AvgPool2d(kernel_size=3, stride=1, padding=1)
                      )
                      (1): DepthConvLayer(
                        (bn): BatchNorm2d(46, eps=1e-05, momentum=0.1, affine=True, track_running_stats=True)
                        (activation): ReLU(inplace=True)
                        (depth_conv): Conv2d(46, 46, kernel_size=(7, 7), stride=(1, 1), padding=(3, 3), groups=46, bias=False)
                        (point_conv): Conv2d(46, 46, kernel_size=(1, 1), stride=(1, 1), bias=False)
                      )
                    )
                    (child_nodes): ModuleList(
                      (0-1): 2 x None
                    )
                    (branch_bns): ModuleList(
                      (0-1): 2 x None
                    )
                  )
                )
                (branch_bns): ModuleList(
                  (0-1): 2 x None
                )
              )
              (1): TreeNode(
                (edges): ModuleList(
                  (0): DepthConvLayer(
                    (bn): BatchNorm2d(46, eps=1e-05, momentum=0.1, affine=True, track_running_stats=True)
                    (activation): ReLU(inplace=True)
                    (depth_conv): Conv2d(46, 46, kernel_size=(5, 5), stride=(1, 1), padding=(2, 2), groups=46, bias=False)
                    (point_conv): Conv2d(46, 46, kernel_size=(1, 1), stride=(1, 1), bias=False)
                  )
                  (1): PoolingLayer(
                    (pool): AvgPool2d(kernel_size=3, stride=1, padding=1)
                  )
                )
                (child_nodes): ModuleList(
                  (0): TreeNode(
                    (edges): ModuleList(
                      (0): DepthConvLayer(
                        (bn): BatchNorm2d(46, eps=1e-05, momentum=0.1, affine=True, track_running_stats=True)
                        (activation): ReLU(inplace=True)
                        (depth_conv): Conv2d(46, 46, kernel_size=(7, 7), stride=(1, 1), padding=(3, 3), groups=46, bias=False)
                        (point_conv): Conv2d(46, 46, kernel_size=(1, 1), stride=(1, 1), bias=False)
                      )
                      (1): DepthConvLayer(
                        (bn): BatchNorm2d(46, eps=1e-05, momentum=0.1, affine=True, track_running_stats=True)
                        (activation): ReLU(inplace=True)
                        (depth_conv): Conv2d(46, 46, kernel_size=(3, 3), stride=(1, 1), padding=(1, 1), groups=46, bias=False)
                        (point_conv): Conv2d(46, 46, kernel_size=(1, 1), stride=(1, 1), bias=False)
                      )
                    )
                    (child_nodes): ModuleList(
                      (0-1): 2 x None
                    )
                    (branch_bns): ModuleList(
                      (0-1): 2 x None
                    )
                  )
                  (1): TreeNode(
                    (edges): ModuleList(
…
                    (child_nodes): ModuleList(
                      (0-1): 2 x None
                    )
                    (branch_bns): ModuleList(
                      (0-1): 2 x None
                    )
                  )
                )
                (branch_bns): ModuleList(
                  (0-1): 2 x None
                )
              )
            )
            (branch_bns): ModuleList(
              (0-1): 2 x BatchNorm2d(46, eps=1e-05, momentum=0.1, affine=True, track_running_stats=True)
            )
          )
        )
        (branch_bns): ModuleList(
          (0): None
        )
      )
      (final_bn): BatchNorm2d(184, eps=1e-05, momentum=0.1, affine=True, track_running_stats=True)
    )
    (20): ResidualTreeBlock(
      (in_bottle): ConvLayer(
        (bn): BatchNorm2d(184, eps=1e-05, momentum=0.1, affine=True, track_running_stats=True)
        (conv): Conv2d(184, 46, kernel_size=(1, 1), stride=(1, 1), bias=False)
      )
      (out_bottle): ConvLayer(
        (bn): BatchNorm2d(46, eps=1e-05, momentum=0.1, affine=True, track_running_stats=True)
        (activation): ReLU(inplace=True)
        (conv): Conv2d(46, 184, kernel_size=(1, 1), stride=(1, 1), bias=False)
      )
      (shortcut): IdentityLayer()
      (cell): TreeNode(
        (edges): ModuleList(
          (0): ConvLayer(
            (bn): BatchNorm2d(46, eps=1e-05, momentum=0.1, affine=True, track_running_stats=True)
            (activation): ReLU(inplace=True)
            (conv): Conv2d(46, 92, kernel_size=(3, 3), stride=(1, 1), padding=(1, 1), groups=2, bias=False)
          )
        )
        (child_nodes): ModuleList(
          (0): TreeNode(
            (edges): ModuleList(
              (0-1): 2 x IdentityLayer()
            )
            (child_nodes): ModuleList(
              (0): TreeNode(
                (edges): ModuleList(
                  (0): DepthConvLayer(
                    (bn): BatchNorm2d(46, eps=1e-05, momentum=0.1, affine=True, track_running_stats=True)
                    (activation): ReLU(inplace=True)
                    (depth_conv): Conv2d(46, 46, kernel_size=(7, 7), stride=(1, 1), padding=(3, 3), groups=46, bias=False)
                    (point_conv): Conv2d(46, 46, kernel_size=(1, 1), stride=(1, 1), bias=False)
                  )
                  (1): DepthConvLayer(
                    (bn): BatchNorm2d(46, eps=1e-05, momentum=0.1, affine=True, track_running_stats=True)
                    (activation): ReLU(inplace=True)
                    (depth_conv): Conv2d(46, 46, kernel_size=(3, 3), stride=(1, 1), padding=(2, 2), dilation=(2, 2), groups=46, bias=False)
                    (point_conv): Conv2d(46, 46, kernel_size=(1, 1), stride=(1, 1), bias=False)
                  )
                )
                (child_nodes): ModuleList(
                  (0-1): 2 x TreeNode(
                    (edges): ModuleList(
                      (0): IdentityLayer()
                      (1): DepthConvLayer(
                        (bn): BatchNorm2d(46, eps=1e-05, momentum=0.1, affine=True, track_running_stats=True)
                        (activation): ReLU(inplace=True)
                        (depth_conv): Conv2d(46, 46, kernel_size=(7, 7), stride=(1, 1), padding=(3, 3), groups=46, bias=False)
                        (point_conv): Conv2d(46, 46, kernel_size=(1, 1), stride=(1, 1), bias=False)
                      )
                    )
                    (child_nodes): ModuleList(
                      (0-1): 2 x None
                    )
                    (branch_bns): ModuleList(
                      (0-1): 2 x None
                    )
                  )
                )
                (branch_bns): ModuleList(
                  (0-1): 2 x None
                )
              )
              (1): TreeNode(
                (edges): ModuleList(
                  (0): DepthConvLayer(
                    (bn): BatchNorm2d(46, eps=1e-05, momentum=0.1, affine=True, track_running_stats=True)
                    (activation): ReLU(inplace=True)
                    (depth_conv): Conv2d(46, 46, kernel_size=(3, 3), stride=(1, 1), padding=(2, 2), dilation=(2, 2), groups=46, bias=False)
                    (point_conv): Conv2d(46, 46, kernel_size=(1, 1), stride=(1, 1), bias=False)
                  )
                  (1): PoolingLayer(
                    (pool): MaxPool2d(kernel_size=3, stride=1, padding=1, dilation=1, ceil_mode=False)
                  )
                )
                (child_nodes): ModuleList(
                  (0): TreeNode(
                    (edges): ModuleList(
                      (0): DepthConvLayer(
                        (bn): BatchNorm2d(46, eps=1e-05, momentum=0.1, affine=True, track_running_stats=True)
                        (activation): ReLU(inplace=True)
                        (depth_conv): Conv2d(46, 46, kernel_size=(3, 3), stride=(1, 1), padding=(1, 1), groups=46, bias=False)
                        (point_conv): Conv2d(46, 46, kernel_size=(1, 1), stride=(1, 1), bias=False)
                      )
                      (1): DepthConvLayer(
                        (bn): BatchNorm2d(46, eps=1e-05, momentum=0.1, affine=True, track_running_stats=True)
                        (activation): ReLU(inplace=True)
                        (depth_conv): Conv2d(46, 46, kernel_size=(7, 7), stride=(1, 1), padding=(3, 3), groups=46, bias=False)
                        (point_conv): Conv2d(46, 46, kernel_size=(1, 1), stride=(1, 1), bias=False)
                      )
                    )
                    (child_nodes): ModuleList(
                      (0-1): 2 x None
                    )
                    (branch_bns): ModuleList(
                      (0-1): 2 x None
                    )
                  )
                  (1): TreeNode(
                    (edges): ModuleList(
                      (0): PoolingLayer(
                        (pool): MaxPool2d(kernel_size=3, stride=1, padding=1, dilation=1, ceil_mode=False)
                      )
                      (1): DepthConvLayer(
                        (bn): BatchNorm2d(46, eps=1e-05, momentum=0.1, affine=True, track_running_stats=True)
                        (activation): ReLU(inplace=True)
                        (depth_conv): Conv2d(46, 46, kernel_size=(5, 5), stride=(1, 1), padding=(2, 2), groups=46, bias=False)
                        (point_conv): Conv2d(46, 46, kernel_size=(1, 1), stride=(1, 1), bias=False)
                      )
                    )
                    (child_nodes): ModuleList(
                      (0-1): 2 x None
                    )
                    (branch_bns): ModuleList(
                      (0-1): 2 x None
                    )
                  )
                )
                (branch_bns): ModuleList(
                  (0-1): 2 x None
                )
              )
            )
            (branch_bns): ModuleList(
              (0-1): 2 x BatchNorm2d(46, eps=1e-05, momentum=0.1, affine=True, track_running_stats=True)
            )
          )
        )
        (branch_bns): ModuleList(
          (0): None
        )
      )
      (final_bn): BatchNorm2d(184, eps=1e-05, momentum=0.1, affine=True, track_running_stats=True)
    )
    (21): ResidualTreeBlock(
      (in_bottle): ConvLayer(
        (bn): BatchNorm2d(184, eps=1e-05, momentum=0.1, affine=True, track_running_stats=True)
        (conv): Conv2d(184, 48, kernel_size=(1, 1), stride=(1, 1), bias=False)
      )
      (out_bottle): ConvLayer(
        (bn): BatchNorm2d(48, eps=1e-05, momentum=0.1, affine=True, track_running_stats=True)
        (activation): ReLU(inplace=True)
        (conv): Conv2d(48, 192, kernel_size=(1, 1), stride=(1, 1), bias=False)
      )
      (shortcut): IdentityLayer()
      (cell): TreeNode(
        (edges): ModuleList(
          (0): ConvLayer(
            (bn): BatchNorm2d(48, eps=1e-05, momentum=0.1, affine=True, track_running_stats=True)
            (activation): ReLU(inplace=True)
            (conv): Conv2d(48, 96, kernel_size=(3, 3), stride=(1, 1), padding=(1, 1), groups=2, bias=False)
          )
        )
        (child_nodes): ModuleList(
          (0): TreeNode(
            (edges): ModuleList(
              (0-1): 2 x IdentityLayer()
            )
            (child_nodes): ModuleList(
              (0): TreeNode(
                (edges): ModuleList(
                  (0): PoolingLayer(
                    (pool): MaxPool2d(kernel_size=3, stride=1, padding=1, dilation=1, ceil_mode=False)
                  )
                  (1): DepthConvLayer(
                    (bn): BatchNorm2d(48, eps=1e-05, momentum=0.1, affine=True, track_running_stats=True)
                    (activation): ReLU(inplace=True)
                    (depth_conv): Conv2d(48, 48, kernel_size=(3, 3), stride=(1, 1), padding=(2, 2), dilation=(2, 2), groups=48, bias=False)
                    (point_conv): Conv2d(48, 48, kernel_size=(1, 1), stride=(1, 1), bias=False)
                  )
                )
                (child_nodes): ModuleList(
                  (0): TreeNode(
                    (edges): ModuleList(
                      (0): PoolingLayer(
                        (pool): AvgPool2d(kernel_size=3, stride=1, padding=1)
                      )
                      (1): DepthConvLayer(
                        (bn): BatchNorm2d(48, eps=1e-05, momentum=0.1, affine=True, track_running_stats=True)
                        (activation): ReLU(inplace=True)
                        (depth_conv): Conv2d(48, 48, kernel_size=(3, 3), stride=(1, 1), padding=(1, 1), groups=48, bias=False)
                        (point_conv): Conv2d(48, 48, kernel_size=(1, 1), stride=(1, 1), bias=False)
                      )
                    )
                    (child_nodes): ModuleList(
                      (0-1): 2 x None
                    )
                    (branch_bns): ModuleList(
                      (0-1): 2 x None
                    )
                  )
                  (1): TreeNode(
                    (edges): ModuleList(
                      (0): IdentityLayer()
                      (1): DepthConvLayer(
                        (bn): BatchNorm2d(48, eps=1e-05, momentum=0.1, affine=True, track_running_stats=True)
                        (activation): ReLU(inplace=True)
                        (depth_conv): Conv2d(48, 48, kernel_size=(3, 3), stride=(1, 1), padding=(2, 2), dilation=(2, 2), groups=48, bias=False)
                        (point_conv): Conv2d(48, 48, kernel_size=(1, 1), stride=(1, 1), bias=False)
                      )
                    )
                    (child_nodes): ModuleList(
                      (0-1): 2 x None
                    )
                    (branch_bns): ModuleList(
                      (0-1): 2 x None
                    )
                  )
                )
                (branch_bns): ModuleList(
                  (0-1): 2 x None
…
                    (child_nodes): ModuleList(
                      (0-1): 2 x None
                    )
                    (branch_bns): ModuleList(
                      (0-1): 2 x None
                    )
                  )
                )
                (branch_bns): ModuleList(
                  (0-1): 2 x None
                )
              )
            )
            (branch_bns): ModuleList(
              (0-1): 2 x BatchNorm2d(48, eps=1e-05, momentum=0.1, affine=True, track_running_stats=True)
            )
          )
        )
        (branch_bns): ModuleList(
          (0): None
        )
      )
      (final_bn): BatchNorm2d(192, eps=1e-05, momentum=0.1, affine=True, track_running_stats=True)
    )
    (22): ResidualTreeBlock(
      (in_bottle): ConvLayer(
        (bn): BatchNorm2d(192, eps=1e-05, momentum=0.1, affine=True, track_running_stats=True)
        (conv): Conv2d(192, 50, kernel_size=(1, 1), stride=(1, 1), bias=False)
      )
      (out_bottle): ConvLayer(
        (bn): BatchNorm2d(50, eps=1e-05, momentum=0.1, affine=True, track_running_stats=True)
        (activation): ReLU(inplace=True)
        (conv): Conv2d(50, 200, kernel_size=(1, 1), stride=(1, 1), bias=False)
      )
      (shortcut): IdentityLayer()
      (cell): TreeNode(
        (edges): ModuleList(
          (0): ConvLayer(
            (bn): BatchNorm2d(50, eps=1e-05, momentum=0.1, affine=True, track_running_stats=True)
            (activation): ReLU(inplace=True)
            (conv): Conv2d(50, 100, kernel_size=(3, 3), stride=(1, 1), padding=(1, 1), groups=2, bias=False)
          )
        )
        (child_nodes): ModuleList(
          (0): TreeNode(
            (edges): ModuleList(
              (0-1): 2 x IdentityLayer()
            )
            (child_nodes): ModuleList(
              (0): TreeNode(
                (edges): ModuleList(
                  (0): DepthConvLayer(
                    (bn): BatchNorm2d(50, eps=1e-05, momentum=0.1, affine=True, track_running_stats=True)
                    (activation): ReLU(inplace=True)
                    (depth_conv): Conv2d(50, 50, kernel_size=(3, 3), stride=(1, 1), padding=(2, 2), dilation=(2, 2), groups=50, bias=False)
                    (point_conv): Conv2d(50, 50, kernel_size=(1, 1), stride=(1, 1), bias=False)
                  )
                  (1): PoolingLayer(
                    (pool): AvgPool2d(kernel_size=3, stride=1, padding=1)
                  )
                )
                (child_nodes): ModuleList(
                  (0): TreeNode(
                    (edges): ModuleList(
                      (0): DepthConvLayer(
                        (bn): BatchNorm2d(50, eps=1e-05, momentum=0.1, affine=True, track_running_stats=True)
                        (activation): ReLU(inplace=True)
                        (depth_conv): Conv2d(50, 50, kernel_size=(7, 7), stride=(1, 1), padding=(3, 3), groups=50, bias=False)
                        (point_conv): Conv2d(50, 50, kernel_size=(1, 1), stride=(1, 1), bias=False)
                      )
                      (1): DepthConvLayer(
                        (bn): BatchNorm2d(50, eps=1e-05, momentum=0.1, affine=True, track_running_stats=True)
                        (activation): ReLU(inplace=True)
                        (depth_conv): Conv2d(50, 50, kernel_size=(3, 3), stride=(1, 1), padding=(1, 1), groups=50, bias=False)
                        (point_conv): Conv2d(50, 50, kernel_size=(1, 1), stride=(1, 1), bias=False)
                      )
                    )
                    (child_nodes): ModuleList(
                      (0-1): 2 x None
                    )
                    (branch_bns): ModuleList(
                      (0-1): 2 x None
                    )
                  )
                  (1): TreeNode(
                    (edges): ModuleList(
                      (0): PoolingLayer(
                        (pool): AvgPool2d(kernel_size=3, stride=1, padding=1)
                      )
                      (1): DepthConvLayer(
                        (bn): BatchNorm2d(50, eps=1e-05, momentum=0.1, affine=True, track_running_stats=True)
                        (activation): ReLU(inplace=True)
                        (depth_conv): Conv2d(50, 50, kernel_size=(3, 3), stride=(1, 1), padding=(1, 1), groups=50, bias=False)
                        (point_conv): Conv2d(50, 50, kernel_size=(1, 1), stride=(1, 1), bias=False)
                      )
                    )
                    (child_nodes): ModuleList(
                      (0-1): 2 x None
                    )
                    (branch_bns): ModuleList(
                      (0-1): 2 x None
                    )
                  )
                )
                (branch_bns): ModuleList(
                  (0-1): 2 x None
                )
              )
              (1): TreeNode(
                (edges): ModuleList(
                  (0): DepthConvLayer(
                    (bn): BatchNorm2d(50, eps=1e-05, momentum=0.1, affine=True, track_running_stats=True)
                    (activation): ReLU(inplace=True)
                    (depth_conv): Conv2d(50, 50, kernel_size=(3, 3), stride=(1, 1), padding=(1, 1), groups=50, bias=False)
                    (point_conv): Conv2d(50, 50, kernel_size=(1, 1), stride=(1, 1), bias=False)
                  )
                  (1): PoolingLayer(
                    (pool): AvgPool2d(kernel_size=3, stride=1, padding=1)
                  )
                )
                (child_nodes): ModuleList(
                  (0): TreeNode(
                    (edges): ModuleList(
                      (0): DepthConvLayer(
                        (bn): BatchNorm2d(50, eps=1e-05, momentum=0.1, affine=True, track_running_stats=True)
                        (activation): ReLU(inplace=True)
                        (depth_conv): Conv2d(50, 50, kernel_size=(7, 7), stride=(1, 1), padding=(3, 3), groups=50, bias=False)
                        (point_conv): Conv2d(50, 50, kernel_size=(1, 1), stride=(1, 1), bias=False)
                      )
                      (1): IdentityLayer()
                    )
                    (child_nodes): ModuleList(
                      (0-1): 2 x None
                    )
                    (branch_bns): ModuleList(
                      (0-1): 2 x None
                    )
                  )
                  (1): TreeNode(
                    (edges): ModuleList(
                      (0-1): 2 x DepthConvLayer(
                        (bn): BatchNorm2d(50, eps=1e-05, momentum=0.1, affine=True, track_running_stats=True)
                        (activation): ReLU(inplace=True)
                        (depth_conv): Conv2d(50, 50, kernel_size=(3, 3), stride=(1, 1), padding=(2, 2), dilation=(2, 2), groups=50, bias=False)
                        (point_conv): Conv2d(50, 50, kernel_size=(1, 1), stride=(1, 1), bias=False)
                      )
                    )
                    (child_nodes): ModuleList(
                      (0-1): 2 x None
                    )
                    (branch_bns): ModuleList(
                      (0-1): 2 x None
                    )
                  )
                )
                (branch_bns): ModuleList(
                  (0-1): 2 x None
                )
              )
            )
            (branch_bns): ModuleList(
              (0-1): 2 x BatchNorm2d(50, eps=1e-05, momentum=0.1, affine=True, track_running_stats=True)
            )
          )
        )
        (branch_bns): ModuleList(
          (0): None
        )
      )
      (final_bn): BatchNorm2d(200, eps=1e-05, momentum=0.1, affine=True, track_running_stats=True)
    )
    (23): ResidualTreeBlock(
      (in_bottle): ConvLayer(
        (bn): BatchNorm2d(200, eps=1e-05, momentum=0.1, affine=True, track_running_stats=True)
        (conv): Conv2d(200, 52, kernel_size=(1, 1), stride=(1, 1), bias=False)
      )
      (out_bottle): ConvLayer(
        (bn): BatchNorm2d(52, eps=1e-05, momentum=0.1, affine=True, track_running_stats=True)
        (activation): ReLU(inplace=True)
        (conv): Conv2d(52, 208, kernel_size=(1, 1), stride=(1, 1), bias=False)
      )
      (shortcut): IdentityLayer()
      (cell): TreeNode(
        (edges): ModuleList(
          (0): ConvLayer(
            (bn): BatchNorm2d(52, eps=1e-05, momentum=0.1, affine=True, track_running_stats=True)
            (activation): ReLU(inplace=True)
            (conv): Conv2d(52, 104, kernel_size=(3, 3), stride=(1, 1), padding=(1, 1), groups=2, bias=False)
          )
        )
        (child_nodes): ModuleList(
          (0): TreeNode(
            (edges): ModuleList(
              (0-1): 2 x IdentityLayer()
            )
            (child_nodes): ModuleList(
              (0): TreeNode(
                (edges): ModuleList(
                  (0): DepthConvLayer(
                    (bn): BatchNorm2d(52, eps=1e-05, momentum=0.1, affine=True, track_running_stats=True)
                    (activation): ReLU(inplace=True)
                    (depth_conv): Conv2d(52, 52, kernel_size=(3, 3), stride=(1, 1), padding=(2, 2), dilation=(2, 2), groups=52, bias=False)
                    (point_conv): Conv2d(52, 52, kernel_size=(1, 1), stride=(1, 1), bias=False)
                  )
                  (1): PoolingLayer(
                    (pool): MaxPool2d(kernel_size=3, stride=1, padding=1, dilation=1, ceil_mode=False)
                  )
                )
                (child_nodes): ModuleList(
                  (0): TreeNode(
                    (edges): ModuleList(
                      (0): PoolingLayer(
                        (pool): MaxPool2d(kernel_size=3, stride=1, padding=1, dilation=1, ceil_mode=False)
                      )
                      (1): PoolingLayer(
                        (pool): AvgPool2d(kernel_size=3, stride=1, padding=1)
                      )
                    )
                    (child_nodes): ModuleList(
                      (0-1): 2 x None
                    )
                    (branch_bns): ModuleList(
                      (0-1): 2 x None
                    )
                  )
                  (1): TreeNode(
                    (edges): ModuleList(
                      (0): DepthConvLayer(
                        (bn): BatchNorm2d(52, eps=1e-05, momentum=0.1, affine=True, track_running_stats=True)
                        (activation): ReLU(inplace=True)
                        (depth_conv): Conv2d(52, 52, kernel_size=(7, 7), stride=(1, 1), padding=(3, 3), groups=52, bias=False)
                        (point_conv): Conv2d(52, 52, kernel_size=(1, 1), stride=(1, 1), bias=False)
                      )
                      (1): IdentityLayer()
                    )
                    (child_nodes): ModuleList(
                      (0-1): 2 x None
                    )
                    (branch_bns): ModuleList(
                      (0-1): 2 x None
                    )
                  )
                )
                (branch_bns): ModuleList(
                  (0-1): 2 x None
                )
              )
              (1): TreeNode(
                (edges): ModuleList(
                  (0): DepthConvLayer(
                    (bn): BatchNorm2d(52, eps=1e-05, momentum=0.1, affine=True, track_running_stats=True)
                    (activation): ReLU(inplace=True)
…
                        (pool): AvgPool2d(kernel_size=3, stride=1, padding=1)
                      )
                      (1): DepthConvLayer(
                        (bn): BatchNorm2d(88, eps=1e-05, momentum=0.1, affine=True, track_running_stats=True)
                        (activation): ReLU(inplace=True)
                        (depth_conv): Conv2d(88, 88, kernel_size=(7, 7), stride=(1, 1), padding=(3, 3), groups=88, bias=False)
                        (point_conv): Conv2d(88, 88, kernel_size=(1, 1), stride=(1, 1), bias=False)
                      )
                    )
                    (child_nodes): ModuleList(
                      (0-1): 2 x None
                    )
                    (branch_bns): ModuleList(
                      (0-1): 2 x None
                    )
                  )
                  (1): TreeNode(
                    (edges): ModuleList(
                      (0-1): 2 x DepthConvLayer(
                        (bn): BatchNorm2d(88, eps=1e-05, momentum=0.1, affine=True, track_running_stats=True)
                        (activation): ReLU(inplace=True)
                        (depth_conv): Conv2d(88, 88, kernel_size=(3, 3), stride=(1, 1), padding=(1, 1), groups=88, bias=False)
                        (point_conv): Conv2d(88, 88, kernel_size=(1, 1), stride=(1, 1), bias=False)
                      )
                    )
                    (child_nodes): ModuleList(
                      (0-1): 2 x None
                    )
                    (branch_bns): ModuleList(
                      (0-1): 2 x None
                    )
                  )
                )
                (branch_bns): ModuleList(
                  (0-1): 2 x None
                )
              )
              (1): TreeNode(
                (edges): ModuleList(
                  (0): DepthConvLayer(
                    (bn): BatchNorm2d(88, eps=1e-05, momentum=0.1, affine=True, track_running_stats=True)
                    (activation): ReLU(inplace=True)
                    (depth_conv): Conv2d(88, 88, kernel_size=(5, 5), stride=(1, 1), padding=(2, 2), groups=88, bias=False)
                    (point_conv): Conv2d(88, 88, kernel_size=(1, 1), stride=(1, 1), bias=False)
                  )
                  (1): DepthConvLayer(
                    (bn): BatchNorm2d(88, eps=1e-05, momentum=0.1, affine=True, track_running_stats=True)
                    (activation): ReLU(inplace=True)
                    (depth_conv): Conv2d(88, 88, kernel_size=(3, 3), stride=(1, 1), padding=(2, 2), dilation=(2, 2), groups=88, bias=False)
                    (point_conv): Conv2d(88, 88, kernel_size=(1, 1), stride=(1, 1), bias=False)
                  )
                )
                (child_nodes): ModuleList(
                  (0): TreeNode(
                    (edges): ModuleList(
                      (0): PoolingLayer(
                        (pool): AvgPool2d(kernel_size=3, stride=1, padding=1)
                      )
                      (1): IdentityLayer()
                    )
                    (child_nodes): ModuleList(
                      (0-1): 2 x None
                    )
                    (branch_bns): ModuleList(
                      (0-1): 2 x None
                    )
                  )
                  (1): TreeNode(
                    (edges): ModuleList(
                      (0): IdentityLayer()
                      (1): DepthConvLayer(
                        (bn): BatchNorm2d(88, eps=1e-05, momentum=0.1, affine=True, track_running_stats=True)
                        (activation): ReLU(inplace=True)
                        (depth_conv): Conv2d(88, 88, kernel_size=(3, 3), stride=(1, 1), padding=(1, 1), groups=88, bias=False)
                        (point_conv): Conv2d(88, 88, kernel_size=(1, 1), stride=(1, 1), bias=False)
                      )
                    )
                    (child_nodes): ModuleList(
                      (0-1): 2 x None
                    )
                    (branch_bns): ModuleList(
                      (0-1): 2 x None
                    )
                  )
                )
                (branch_bns): ModuleList(
                  (0-1): 2 x None
                )
              )
            )
            (branch_bns): ModuleList(
              (0-1): 2 x BatchNorm2d(88, eps=1e-05, momentum=0.1, affine=True, track_running_stats=True)
            )
          )
        )
        (branch_bns): ModuleList(
          (0): None
        )
      )
      (final_bn): BatchNorm2d(352, eps=1e-05, momentum=0.1, affine=True, track_running_stats=True)
    )
    (48): ResidualTreeBlock(
      (in_bottle): ConvLayer(
        (bn): BatchNorm2d(352, eps=1e-05, momentum=0.1, affine=True, track_running_stats=True)
        (conv): Conv2d(352, 90, kernel_size=(1, 1), stride=(1, 1), bias=False)
      )
      (out_bottle): ConvLayer(
        (bn): BatchNorm2d(90, eps=1e-05, momentum=0.1, affine=True, track_running_stats=True)
        (activation): ReLU(inplace=True)
        (conv): Conv2d(90, 360, kernel_size=(1, 1), stride=(1, 1), bias=False)
      )
      (shortcut): IdentityLayer()
      (cell): TreeNode(
        (edges): ModuleList(
          (0): ConvLayer(
            (bn): BatchNorm2d(90, eps=1e-05, momentum=0.1, affine=True, track_running_stats=True)
            (activation): ReLU(inplace=True)
            (conv): Conv2d(90, 180, kernel_size=(3, 3), stride=(1, 1), padding=(1, 1), groups=2, bias=False)
          )
        )
        (child_nodes): ModuleList(
          (0): TreeNode(
            (edges): ModuleList(
              (0-1): 2 x IdentityLayer()
            )
            (child_nodes): ModuleList(
              (0): TreeNode(
                (edges): ModuleList(
                  (0): DepthConvLayer(
                    (bn): BatchNorm2d(90, eps=1e-05, momentum=0.1, affine=True, track_running_stats=True)
                    (activation): ReLU(inplace=True)
                    (depth_conv): Conv2d(90, 90, kernel_size=(5, 5), stride=(1, 1), padding=(2, 2), groups=90, bias=False)
                    (point_conv): Conv2d(90, 90, kernel_size=(1, 1), stride=(1, 1), bias=False)
                  )
                  (1): DepthConvLayer(
                    (bn): BatchNorm2d(90, eps=1e-05, momentum=0.1, affine=True, track_running_stats=True)
                    (activation): ReLU(inplace=True)
                    (depth_conv): Conv2d(90, 90, kernel_size=(3, 3), stride=(1, 1), padding=(2, 2), dilation=(2, 2), groups=90, bias=False)
                    (point_conv): Conv2d(90, 90, kernel_size=(1, 1), stride=(1, 1), bias=False)
                  )
                )
                (child_nodes): ModuleList(
                  (0): TreeNode(
                    (edges): ModuleList(
                      (0): DepthConvLayer(
                        (bn): BatchNorm2d(90, eps=1e-05, momentum=0.1, affine=True, track_running_stats=True)
                        (activation): ReLU(inplace=True)
                        (depth_conv): Conv2d(90, 90, kernel_size=(7, 7), stride=(1, 1), padding=(3, 3), groups=90, bias=False)
                        (point_conv): Conv2d(90, 90, kernel_size=(1, 1), stride=(1, 1), bias=False)
                      )
                      (1): DepthConvLayer(
                        (bn): BatchNorm2d(90, eps=1e-05, momentum=0.1, affine=True, track_running_stats=True)
                        (activation): ReLU(inplace=True)
                        (depth_conv): Conv2d(90, 90, kernel_size=(3, 3), stride=(1, 1), padding=(2, 2), dilation=(2, 2), groups=90, bias=False)
                        (point_conv): Conv2d(90, 90, kernel_size=(1, 1), stride=(1, 1), bias=False)
                      )
                    )
                    (child_nodes): ModuleList(
                      (0-1): 2 x None
                    )
                    (branch_bns): ModuleList(
                      (0-1): 2 x None
                    )
                  )
                  (1): TreeNode(
                    (edges): ModuleList(
…
                      (0-1): 2 x None
                    )
                    (branch_bns): ModuleList(
                      (0-1): 2 x None
                    )
                  )
                )
                (branch_bns): ModuleList(
                  (0-1): 2 x None
                )
              )
              (1): TreeNode(
                (edges): ModuleList(
                  (0): PoolingLayer(
                    (pool): MaxPool2d(kernel_size=3, stride=1, padding=1, dilation=1, ceil_mode=False)
                  )
                  (1): DepthConvLayer(
                    (bn): BatchNorm2d(90, eps=1e-05, momentum=0.1, affine=True, track_running_stats=True)
                    (activation): ReLU(inplace=True)
                    (depth_conv): Conv2d(90, 90, kernel_size=(7, 7), stride=(1, 1), padding=(3, 3), groups=90, bias=False)
                    (point_conv): Conv2d(90, 90, kernel_size=(1, 1), stride=(1, 1), bias=False)
                  )
                )
                (child_nodes): ModuleList(
                  (0): TreeNode(
                    (edges): ModuleList(
                      (0): DepthConvLayer(
                        (bn): BatchNorm2d(90, eps=1e-05, momentum=0.1, affine=True, track_running_stats=True)
                        (activation): ReLU(inplace=True)
                        (depth_conv): Conv2d(90, 90, kernel_size=(3, 3), stride=(1, 1), padding=(1, 1), groups=90, bias=False)
                        (point_conv): Conv2d(90, 90, kernel_size=(1, 1), stride=(1, 1), bias=False)
                      )
                      (1): DepthConvLayer(
                        (bn): BatchNorm2d(90, eps=1e-05, momentum=0.1, affine=True, track_running_stats=True)
                        (activation): ReLU(inplace=True)
                        (depth_conv): Conv2d(90, 90, kernel_size=(5, 5), stride=(1, 1), padding=(2, 2), groups=90, bias=False)
                        (point_conv): Conv2d(90, 90, kernel_size=(1, 1), stride=(1, 1), bias=False)
                      )
                    )
                    (child_nodes): ModuleList(
                      (0-1): 2 x None
                    )
                    (branch_bns): ModuleList(
                      (0-1): 2 x None
                    )
                  )
                  (1): TreeNode(
                    (edges): ModuleList(
…
                    (child_nodes): ModuleList(
                      (0-1): 2 x None
                    )
                    (branch_bns): ModuleList(
                      (0-1): 2 x None
                    )
                  )
                )
                (branch_bns): ModuleList(
                  (0-1): 2 x None
                )
              )
            )
            (branch_bns): ModuleList(
              (0-1): 2 x BatchNorm2d(90, eps=1e-05, momentum=0.1, affine=True, track_running_stats=True)
            )
          )
        )
        (branch_bns): ModuleList(
          (0): None
        )
      )
      (final_bn): BatchNorm2d(360, eps=1e-05, momentum=0.1, affine=True, track_running_stats=True)
    )
    (49): ResidualTreeBlock(
      (in_bottle): ConvLayer(
        (bn): BatchNorm2d(360, eps=1e-05, momentum=0.1, affine=True, track_running_stats=True)
        (conv): Conv2d(360, 92, kernel_size=(1, 1), stride=(1, 1), bias=False)
      )
      (out_bottle): ConvLayer(
        (bn): BatchNorm2d(92, eps=1e-05, momentum=0.1, affine=True, track_running_stats=True)
        (activation): ReLU(inplace=True)
        (conv): Conv2d(92, 368, kernel_size=(1, 1), stride=(1, 1), bias=False)
      )
      (shortcut): IdentityLayer()
      (cell): TreeNode(
        (edges): ModuleList(
          (0): ConvLayer(
            (bn): BatchNorm2d(92, eps=1e-05, momentum=0.1, affine=True, track_running_stats=True)
            (activation): ReLU(inplace=True)
            (conv): Conv2d(92, 184, kernel_size=(3, 3), stride=(1, 1), padding=(1, 1), groups=2, bias=False)
          )
        )
        (child_nodes): ModuleList(
          (0): TreeNode(
            (edges): ModuleList(
              (0-1): 2 x IdentityLayer()
            )
            (child_nodes): ModuleList(
              (0): TreeNode(
                (edges): ModuleList(
                  (0-1): 2 x DepthConvLayer(
                    (bn): BatchNorm2d(92, eps=1e-05, momentum=0.1, affine=True, track_running_stats=True)
                    (activation): ReLU(inplace=True)
                    (depth_conv): Conv2d(92, 92, kernel_size=(7, 7), stride=(1, 1), padding=(3, 3), groups=92, bias=False)
                    (point_conv): Conv2d(92, 92, kernel_size=(1, 1), stride=(1, 1), bias=False)
                  )
                )
                (child_nodes): ModuleList(
                  (0): TreeNode(
                    (edges): ModuleList(
                      (0): DepthConvLayer(
                        (bn): BatchNorm2d(92, eps=1e-05, momentum=0.1, affine=True, track_running_stats=True)
                        (activation): ReLU(inplace=True)
                        (depth_conv): Conv2d(92, 92, kernel_size=(3, 3), stride=(1, 1), padding=(1, 1), groups=92, bias=False)
                        (point_conv): Conv2d(92, 92, kernel_size=(1, 1), stride=(1, 1), bias=False)
                      )
                      (1): PoolingLayer(
                        (pool): MaxPool2d(kernel_size=3, stride=1, padding=1, dilation=1, ceil_mode=False)
                      )
                    )
                    (child_nodes): ModuleList(
                      (0-1): 2 x None
                    )
                    (branch_bns): ModuleList(
                      (0-1): 2 x None
                    )
                  )
                  (1): TreeNode(
                    (edges): ModuleList(
                      (0): DepthConvLayer(
                        (bn): BatchNorm2d(92, eps=1e-05, momentum=0.1, affine=True, track_running_stats=True)
                        (activation): ReLU(inplace=True)
                        (depth_conv): Conv2d(92, 92, kernel_size=(3, 3), stride=(1, 1), padding=(2, 2), dilation=(2, 2), groups=92, bias=False)
                        (point_conv): Conv2d(92, 92, kernel_size=(1, 1), stride=(1, 1), bias=False)
                      )
                      (1): PoolingLayer(
                        (pool): AvgPool2d(kernel_size=3, stride=1, padding=1)
                      )
                    )
                    (child_nodes): ModuleList(
                      (0-1): 2 x None
                    )
                    (branch_bns): ModuleList(
                      (0-1): 2 x None
                    )
                  )
                )
                (branch_bns): ModuleList(
                  (0-1): 2 x None
                )
              )
              (1): TreeNode(
                (edges): ModuleList(
                  (0): PoolingLayer(
                    (pool): MaxPool2d(kernel_size=3, stride=1, padding=1, dilation=1, ceil_mode=False)
                  )
                  (1): DepthConvLayer(
                    (bn): BatchNorm2d(92, eps=1e-05, momentum=0.1, affine=True, track_running_stats=True)
                    (activation): ReLU(inplace=True)
                    (depth_conv): Conv2d(92, 92, kernel_size=(5, 5), stride=(1, 1), padding=(2, 2), groups=92, bias=False)
                    (point_conv): Conv2d(92, 92, kernel_size=(1, 1), stride=(1, 1), bias=False)
                  )
                )
                (child_nodes): ModuleList(
                  (0): TreeNode(
                    (edges): ModuleList(
                      (0-1): 2 x PoolingLayer(
                        (pool): MaxPool2d(kernel_size=3, stride=1, padding=1, dilation=1, ceil_mode=False)
                      )
                    )
                    (child_nodes): ModuleList(
                      (0-1): 2 x None
                    )
                    (branch_bns): ModuleList(
                      (0-1): 2 x None
                    )
                  )
                  (1): TreeNode(
                    (edges): ModuleList(
                      (0): DepthConvLayer(
                        (bn): BatchNorm2d(92, eps=1e-05, momentum=0.1, affine=True, track_running_stats=True)
                        (activation): ReLU(inplace=True)
                        (depth_conv): Conv2d(92, 92, kernel_size=(5, 5), stride=(1, 1), padding=(2, 2), groups=92, bias=False)
                        (point_conv): Conv2d(92, 92, kernel_size=(1, 1), stride=(1, 1), bias=False)
                      )
                      (1): PoolingLayer(
                        (pool): MaxPool2d(kernel_size=3, stride=1, padding=1, dilation=1, ceil_mode=False)
                      )
                    )
                    (child_nodes): ModuleList(
                      (0-1): 2 x None
                    )
                    (branch_bns): ModuleList(
                      (0-1): 2 x None
                    )
                  )
                )
                (branch_bns): ModuleList(
                  (0-1): 2 x None
                )
              )
            )
            (branch_bns): ModuleList(
              (0-1): 2 x BatchNorm2d(92, eps=1e-05, momentum=0.1, affine=True, track_running_stats=True)
            )
          )
        )
        (branch_bns): ModuleList(
          (0): None
        )
      )
      (final_bn): BatchNorm2d(368, eps=1e-05, momentum=0.1, affine=True, track_running_stats=True)
    )
    (50): ResidualTreeBlock(
      (in_bottle): ConvLayer(
        (bn): BatchNorm2d(368, eps=1e-05, momentum=0.1, affine=True, track_running_stats=True)
        (conv): Conv2d(368, 94, kernel_size=(1, 1), stride=(1, 1), bias=False)
      )
      (out_bottle): ConvLayer(
        (bn): BatchNorm2d(94, eps=1e-05, momentum=0.1, affine=True, track_running_stats=True)
        (activation): ReLU(inplace=True)
        (conv): Conv2d(94, 376, kernel_size=(1, 1), stride=(1, 1), bias=False)
      )
      (shortcut): IdentityLayer()
      (cell): TreeNode(
        (edges): ModuleList(
          (0): ConvLayer(
            (bn): BatchNorm2d(94, eps=1e-05, momentum=0.1, affine=True, track_running_stats=True)
            (activation): ReLU(inplace=True)
            (conv): Conv2d(94, 188, kernel_size=(3, 3), stride=(1, 1), padding=(1, 1), groups=2, bias=False)
          )
        )
        (child_nodes): ModuleList(
          (0): TreeNode(
            (edges): ModuleList(
              (0-1): 2 x IdentityLayer()
            )
            (child_nodes): ModuleList(
              (0): TreeNode(
                (edges): ModuleList(
                  (0): PoolingLayer(
                    (pool): MaxPool2d(kernel_size=3, stride=1, padding=1, dilation=1, ceil_mode=False)
                  )
                  (1): DepthConvLayer(
                    (bn): BatchNorm2d(94, eps=1e-05, momentum=0.1, affine=True, track_running_stats=True)
                    (activation): ReLU(inplace=True)
                    (depth_conv): Conv2d(94, 94, kernel_size=(5, 5), stride=(1, 1), padding=(2, 2), groups=94, bias=False)
                    (point_conv): Conv2d(94, 94, kernel_size=(1, 1), stride=(1, 1), bias=False)
                  )
                )
                (child_nodes): ModuleList(
                  (0): TreeNode(
                    (edges): ModuleList(
                      (0): IdentityLayer()
                      (1): PoolingLayer(
                        (pool): AvgPool2d(kernel_size=3, stride=1, padding=1)
                      )
                    )
                    (child_nodes): ModuleList(
                      (0-1): 2 x None
                    )
                    (branch_bns): ModuleList(
                      (0-1): 2 x None
                    )
                  )
                  (1): TreeNode(
                    (edges): ModuleList(
                      (0): DepthConvLayer(
                        (bn): BatchNorm2d(94, eps=1e-05, momentum=0.1, affine=True, track_running_stats=True)
                        (activation): ReLU(inplace=True)
                        (depth_conv): Conv2d(94, 94, kernel_size=(3, 3), stride=(1, 1), padding=(2, 2), dilation=(2, 2), groups=94, bias=False)
                        (point_conv): Conv2d(94, 94, kernel_size=(1, 1), stride=(1, 1), bias=False)
                      )
                      (1): DepthConvLayer(
                        (bn): BatchNorm2d(94, eps=1e-05, momentum=0.1, affine=True, track_running_stats=True)
                        (activation): ReLU(inplace=True)
                        (depth_conv): Conv2d(94, 94, kernel_size=(3, 3), stride=(1, 1), padding=(1, 1), groups=94, bias=False)
                        (point_conv): Conv2d(94, 94, kernel_size=(1, 1), stride=(1, 1), bias=False)
                      )
                    )
                    (child_nodes): ModuleList(
                      (0-1): 2 x None
                    )
                    (branch_bns): ModuleList(
                      (0-1): 2 x None
                    )
                  )
                )
                (branch_bns): ModuleList(
                  (0-1): 2 x None
                )
              )
              (1): TreeNode(
                (edges): ModuleList(
                  (0): DepthConvLayer(
                    (bn): BatchNorm2d(94, eps=1e-05, momentum=0.1, affine=True, track_running_stats=True)
                    (activation): ReLU(inplace=True)
                    (depth_conv): Conv2d(94, 94, kernel_size=(5, 5), stride=(1, 1), padding=(2, 2), groups=94, bias=False)
                    (point_conv): Conv2d(94, 94, kernel_size=(1, 1), stride=(1, 1), bias=False)
                  )
                  (1): DepthConvLayer(
                    (bn): BatchNorm2d(94, eps=1e-05, momentum=0.1, affine=True, track_running_stats=True)
                    (activation): ReLU(inplace=True)
                    (depth_conv): Conv2d(94, 94, kernel_size=(3, 3), stride=(1, 1), padding=(1, 1), groups=94, bias=False)
                    (point_conv): Conv2d(94, 94, kernel_size=(1, 1), stride=(1, 1), bias=False)
                  )
                )
                (child_nodes): ModuleList(
                  (0): TreeNode(
                    (edges): ModuleList(
                      (0): DepthConvLayer(
                        (bn): BatchNorm2d(94, eps=1e-05, momentum=0.1, affine=True, track_running_stats=True)
                        (activation): ReLU(inplace=True)
                        (depth_conv): Conv2d(94, 94, kernel_size=(7, 7), stride=(1, 1), padding=(3, 3), groups=94, bias=False)
                        (point_conv): Conv2d(94, 94, kernel_size=(1, 1), stride=(1, 1), bias=False)
                      )
                      (1): DepthConvLayer(
                        (bn): BatchNorm2d(94, eps=1e-05, momentum=0.1, affine=True, track_running_stats=True)
                        (activation): ReLU(inplace=True)
                        (depth_conv): Conv2d(94, 94, kernel_size=(3, 3), stride=(1, 1), padding=(1, 1), groups=94, bias=False)
                        (point_conv): Conv2d(94, 94, kernel_size=(1, 1), stride=(1, 1), bias=False)
                      )
                    )
                    (child_nodes): ModuleList(
                      (0-1): 2 x None
                    )
                    (branch_bns): ModuleList(
                      (0-1): 2 x None
                    )
                  )
                  (1): TreeNode(
                    (edges): ModuleList(
                      (0-1): 2 x DepthConvLayer(
                        (bn): BatchNorm2d(94, eps=1e-05, momentum=0.1, affine=True, track_running_stats=True)
                        (activation): ReLU(inplace=True)
                        (depth_conv): Conv2d(94, 94, kernel_size=(7, 7), stride=(1, 1), padding=(3, 3), groups=94, bias=False)
                        (point_conv): Conv2d(94, 94, kernel_size=(1, 1), stride=(1, 1), bias=False)
                      )
                    )
                    (child_nodes): ModuleList(
                      (0-1): 2 x None
                    )
                    (branch_bns): ModuleList(
                      (0-1): 2 x None
                    )
                  )
                )
                (branch_bns): ModuleList(
                  (0-1): 2 x None
                )
              )
            )
            (branch_bns): ModuleList(
              (0-1): 2 x BatchNorm2d(94, eps=1e-05, momentum=0.1, affine=True, track_running_stats=True)
            )
          )
        )
        (branch_bns): ModuleList(
          (0): None
        )
      )
      (final_bn): BatchNorm2d(376, eps=1e-05, momentum=0.1, affine=True, track_running_stats=True)
    )
    (51): ResidualTreeBlock(
      (in_bottle): ConvLayer(
        (bn): BatchNorm2d(376, eps=1e-05, momentum=0.1, affine=True, track_running_stats=True)
        (conv): Conv2d(376, 94, kernel_size=(1, 1), stride=(1, 1), bias=False)
      )
      (out_bottle): ConvLayer(
        (bn): BatchNorm2d(94, eps=1e-05, momentum=0.1, affine=True, track_running_stats=True)
        (activation): ReLU(inplace=True)
        (conv): Conv2d(94, 376, kernel_size=(1, 1), stride=(1, 1), bias=False)
      )
      (shortcut): IdentityLayer()
      (cell): TreeNode(
        (edges): ModuleList(
          (0): ConvLayer(
            (bn): BatchNorm2d(94, eps=1e-05, momentum=0.1, affine=True, track_running_stats=True)
            (activation): ReLU(inplace=True)
            (conv): Conv2d(94, 188, kernel_size=(3, 3), stride=(1, 1), padding=(1, 1), groups=2, bias=False)
          )
        )
        (child_nodes): ModuleList(
          (0): TreeNode(
            (edges): ModuleList(
              (0-1): 2 x IdentityLayer()
            )
            (child_nodes): ModuleList(
              (0): TreeNode(
                (edges): ModuleList(
                  (0): IdentityLayer()
                  (1): DepthConvLayer(
                    (bn): BatchNorm2d(94, eps=1e-05, momentum=0.1, affine=True, track_running_stats=True)
                    (activation): ReLU(inplace=True)
                    (depth_conv): Conv2d(94, 94, kernel_size=(3, 3), stride=(1, 1), padding=(1, 1), groups=94, bias=False)
                    (point_conv): Conv2d(94, 94, kernel_size=(1, 1), stride=(1, 1), bias=False)
                  )
                )
                (child_nodes): ModuleList(
                  (0): TreeNode(
                    (edges): ModuleList(
                      (0): PoolingLayer(
                        (pool): AvgPool2d(kernel_size=3, stride=1, padding=1)
                      )
                      (1): DepthConvLayer(
                        (bn): BatchNorm2d(94, eps=1e-05, momentum=0.1, affine=True, track_running_stats=True)
                        (activation): ReLU(inplace=True)
                        (depth_conv): Conv2d(94, 94, kernel_size=(5, 5), stride=(1, 1), padding=(2, 2), groups=94, bias=False)
                        (point_conv): Conv2d(94, 94, kernel_size=(1, 1), stride=(1, 1), bias=False)
                      )
                    )
                    (child_nodes): ModuleList(
                      (0-1): 2 x None
                    )
                    (branch_bns): ModuleList(
                      (0-1): 2 x None
                    )
                  )
                  (1): TreeNode(
                    (edges): ModuleList(
                      (0-1): 2 x DepthConvLayer(
                        (bn): BatchNorm2d(94, eps=1e-05, momentum=0.1, affine=True, track_running_stats=True)
                        (activation): ReLU(inplace=True)
                        (depth_conv): Conv2d(94, 94, kernel_size=(7, 7), stride=(1, 1), padding=(3, 3), groups=94, bias=False)
                        (point_conv): Conv2d(94, 94, kernel_size=(1, 1), stride=(1, 1), bias=False)
                      )
                    )
                    (child_nodes): ModuleList(
                      (0-1): 2 x None
                    )
                    (branch_bns): ModuleList(
                      (0-1): 2 x None
                    )
                  )
                )
                (branch_bns): ModuleList(
                  (0-1): 2 x None
                )
              )
              (1): TreeNode(
                (edges): ModuleList(
                  (0): IdentityLayer()
                  (1): DepthConvLayer(
                    (bn): BatchNorm2d(94, eps=1e-05, momentum=0.1, affine=True, track_running_stats=True)
                    (activation): ReLU(inplace=True)
                    (depth_conv): Conv2d(94, 94, kernel_size=(7, 7), stride=(1, 1), padding=(3, 3), groups=94, bias=False)
                    (point_conv): Conv2d(94, 94, kernel_size=(1, 1), stride=(1, 1), bias=False)
                  )
                )
                (child_nodes): ModuleList(
                  (0): TreeNode(
                    (edges): ModuleList(
                      (0-1): 2 x DepthConvLayer(
                        (bn): BatchNorm2d(94, eps=1e-05, momentum=0.1, affine=True, track_running_stats=True)
                        (activation): ReLU(inplace=True)
                        (depth_conv): Conv2d(94, 94, kernel_size=(7, 7), stride=(1, 1), padding=(3, 3), groups=94, bias=False)
                        (point_conv): Conv2d(94, 94, kernel_size=(1, 1), stride=(1, 1), bias=False)
                      )
                    )
                    (child_nodes): ModuleList(
                      (0-1): 2 x None
                    )
                    (branch_bns): ModuleList(
                      (0-1): 2 x None
                    )
                  )
                  (1): TreeNode(
                    (edges): ModuleList(
                      (0): DepthConvLayer(
                        (bn): BatchNorm2d(94, eps=1e-05, momentum=0.1, affine=True, track_running_stats=True)
                        (activation): ReLU(inplace=True)
                        (depth_conv): Conv2d(94, 94, kernel_size=(3, 3), stride=(1, 1), padding=(1, 1), groups=94, bias=False)
                        (point_conv): Conv2d(94, 94, kernel_size=(1, 1), stride=(1, 1), bias=False)
                      )
                      (1): PoolingLayer(
                        (pool): AvgPool2d(kernel_size=3, stride=1, padding=1)
                      )
                    )
                    (child_nodes): ModuleList(
                      (0-1): 2 x None
                    )
                    (branch_bns): ModuleList(
                      (0-1): 2 x None
                    )
                  )
                )
                (branch_bns): ModuleList(
                  (0-1): 2 x None
                )
              )
            )
            (branch_bns): ModuleList(
              (0-1): 2 x BatchNorm2d(94, eps=1e-05, momentum=0.1, affine=True, track_running_stats=True)
            )
          )
        )
        (branch_bns): ModuleList(
          (0): None
        )
      )
      (final_bn): BatchNorm2d(376, eps=1e-05, momentum=0.1, affine=True, track_running_stats=True)
    )
    (52): ResidualTreeBlock(
      (in_bottle): ConvLayer(
        (bn): BatchNorm2d(376, eps=1e-05, momentum=0.1, affine=True, track_running_stats=True)
        (conv): Conv2d(376, 96, kernel_size=(1, 1), stride=(1, 1), bias=False)
      )
      (out_bottle): ConvLayer(
        (bn): BatchNorm2d(96, eps=1e-05, momentum=0.1, affine=True, track_running_stats=True)
        (activation): ReLU(inplace=True)
        (conv): Conv2d(96, 384, kernel_size=(1, 1), stride=(1, 1), bias=False)
      )
      (shortcut): IdentityLayer()
      (cell): TreeNode(
        (edges): ModuleList(
          (0): ConvLayer(
            (bn): BatchNorm2d(96, eps=1e-05, momentum=0.1, affine=True, track_running_stats=True)
            (activation): ReLU(inplace=True)
            (conv): Conv2d(96, 192, kernel_size=(3, 3), stride=(1, 1), padding=(1, 1), groups=2, bias=False)
          )
        )
        (child_nodes): ModuleList(
          (0): TreeNode(
            (edges): ModuleList(
              (0-1): 2 x IdentityLayer()
            )
            (child_nodes): ModuleList(
              (0): TreeNode(
                (edges): ModuleList(
                  (0): DepthConvLayer(
                    (bn): BatchNorm2d(96, eps=1e-05, momentum=0.1, affine=True, track_running_stats=True)
                    (activation): ReLU(inplace=True)
                    (depth_conv): Conv2d(96, 96, kernel_size=(5, 5), stride=(1, 1), padding=(2, 2), groups=96, bias=False)
                    (point_conv): Conv2d(96, 96, kernel_size=(1, 1), stride=(1, 1), bias=False)
                  )
                  (1): PoolingLayer(
                    (pool): MaxPool2d(kernel_size=3, stride=1, padding=1, dilation=1, ceil_mode=False)
                  )
                )
                (child_nodes): ModuleList(
                  (0): TreeNode(
                    (edges): ModuleList(
                      (0): DepthConvLayer(
                        (bn): BatchNorm2d(96, eps=1e-05, momentum=0.1, affine=True, track_running_stats=True)
                        (activation): ReLU(inplace=True)
                        (depth_conv): Conv2d(96, 96, kernel_size=(5, 5), stride=(1, 1), padding=(2, 2), groups=96, bias=False)
                        (point_conv): Conv2d(96, 96, kernel_size=(1, 1), stride=(1, 1), bias=False)
                      )
                      (1): DepthConvLayer(
                        (bn): BatchNorm2d(96, eps=1e-05, momentum=0.1, affine=True, track_running_stats=True)
                        (activation): ReLU(inplace=True)
                        (depth_conv): Conv2d(96, 96, kernel_size=(3, 3), stride=(1, 1), padding=(1, 1), groups=96, bias=False)
                        (point_conv): Conv2d(96, 96, kernel_size=(1, 1), stride=(1, 1), bias=False)
                      )
                    )
                    (child_nodes): ModuleList(
                      (0-1): 2 x None
                    )
                    (branch_bns): ModuleList(
                      (0-1): 2 x None
                    )
                  )
                  (1): TreeNode(
                    (edges): ModuleList(
…
                        (pool): AvgPool2d(kernel_size=3, stride=1, padding=1)
                      )
                      (1): PoolingLayer(
                        (pool): MaxPool2d(kernel_size=3, stride=1, padding=1, dilation=1, ceil_mode=False)
                      )
                    )
                    (child_nodes): ModuleList(
                      (0-1): 2 x None
                    )
                    (branch_bns): ModuleList(
                      (0-1): 2 x None
                    )
                  )
                  (1): TreeNode(
                    (edges): ModuleList(
                      (0): DepthConvLayer(
                        (bn): BatchNorm2d(96, eps=1e-05, momentum=0.1, affine=True, track_running_stats=True)
                        (activation): ReLU(inplace=True)
                        (depth_conv): Conv2d(96, 96, kernel_size=(5, 5), stride=(1, 1), padding=(2, 2), groups=96, bias=False)
                        (point_conv): Conv2d(96, 96, kernel_size=(1, 1), stride=(1, 1), bias=False)
                      )
                      (1): IdentityLayer()
                    )
                    (child_nodes): ModuleList(
                      (0-1): 2 x None
                    )
                    (branch_bns): ModuleList(
                      (0-1): 2 x None
                    )
                  )
                )
                (branch_bns): ModuleList(
                  (0-1): 2 x None
                )
              )
            )
            (branch_bns): ModuleList(
              (0-1): 2 x BatchNorm2d(96, eps=1e-05, momentum=0.1, affine=True, track_running_stats=True)
            )
          )
        )
        (branch_bns): ModuleList(
          (0): None
        )
      )
      (final_bn): BatchNorm2d(384, eps=1e-05, momentum=0.1, affine=True, track_running_stats=True)
    )
    (53): ResidualTreeBlock(
      (in_bottle): ConvLayer(
        (bn): BatchNorm2d(384, eps=1e-05, momentum=0.1, affine=True, track_running_stats=True)
        (conv): Conv2d(384, 98, kernel_size=(1, 1), stride=(1, 1), bias=False)
      )
      (out_bottle): ConvLayer(
        (bn): BatchNorm2d(98, eps=1e-05, momentum=0.1, affine=True, track_running_stats=True)
        (activation): ReLU(inplace=True)
        (conv): Conv2d(98, 392, kernel_size=(1, 1), stride=(1, 1), bias=False)
      )
      (shortcut): IdentityLayer()
      (cell): TreeNode(
        (edges): ModuleList(
          (0): ConvLayer(
            (bn): BatchNorm2d(98, eps=1e-05, momentum=0.1, affine=True, track_running_stats=True)
            (activation): ReLU(inplace=True)
            (conv): Conv2d(98, 196, kernel_size=(3, 3), stride=(1, 1), padding=(1, 1), groups=2, bias=False)
          )
        )
        (child_nodes): ModuleList(
          (0): TreeNode(
            (edges): ModuleList(
              (0-1): 2 x IdentityLayer()
            )
            (child_nodes): ModuleList(
              (0): TreeNode(
                (edges): ModuleList(
                  (0): DepthConvLayer(
                    (bn): BatchNorm2d(98, eps=1e-05, momentum=0.1, affine=True, track_running_stats=True)
                    (activation): ReLU(inplace=True)
                    (depth_conv): Conv2d(98, 98, kernel_size=(3, 3), stride=(1, 1), padding=(1, 1), groups=98, bias=False)
                    (point_conv): Conv2d(98, 98, kernel_size=(1, 1), stride=(1, 1), bias=False)
                  )
                  (1): PoolingLayer(
                    (pool): MaxPool2d(kernel_size=3, stride=1, padding=1, dilation=1, ceil_mode=False)
                  )
                )
                (child_nodes): ModuleList(
                  (0): TreeNode(
                    (edges): ModuleList(
                      (0): DepthConvLayer(
                        (bn): BatchNorm2d(98, eps=1e-05, momentum=0.1, affine=True, track_running_stats=True)
                        (activation): ReLU(inplace=True)
                        (depth_conv): Conv2d(98, 98, kernel_size=(3, 3), stride=(1, 1), padding=(2, 2), dilation=(2, 2), groups=98, bias=False)
                        (point_conv): Conv2d(98, 98, kernel_size=(1, 1), stride=(1, 1), bias=False)
                      )
                      (1): DepthConvLayer(
                        (bn): BatchNorm2d(98, eps=1e-05, momentum=0.1, affine=True, track_running_stats=True)
                        (activation): ReLU(inplace=True)
                        (depth_conv): Conv2d(98, 98, kernel_size=(3, 3), stride=(1, 1), padding=(1, 1), groups=98, bias=False)
                        (point_conv): Conv2d(98, 98, kernel_size=(1, 1), stride=(1, 1), bias=False)
                      )
                    )
                    (child_nodes): ModuleList(
                      (0-1): 2 x None
                    )
                    (branch_bns): ModuleList(
                      (0-1): 2 x None
                    )
                  )
                  (1): TreeNode(
                    (edges): ModuleList(
…
                        (pool): AvgPool2d(kernel_size=3, stride=1, padding=1)
                      )
                    )
                    (child_nodes): ModuleList(
                      (0-1): 2 x None
                    )
                    (branch_bns): ModuleList(
                      (0-1): 2 x None
                    )
                  )
                )
                (branch_bns): ModuleList(
                  (0-1): 2 x None
                )
              )
              (1): TreeNode(
                (edges): ModuleList(
                  (0): IdentityLayer()
                  (1): DepthConvLayer(
                    (bn): BatchNorm2d(98, eps=1e-05, momentum=0.1, affine=True, track_running_stats=True)
                    (activation): ReLU(inplace=True)
                    (depth_conv): Conv2d(98, 98, kernel_size=(7, 7), stride=(1, 1), padding=(3, 3), groups=98, bias=False)
                    (point_conv): Conv2d(98, 98, kernel_size=(1, 1), stride=(1, 1), bias=False)
                  )
                )
                (child_nodes): ModuleList(
                  (0): TreeNode(
                    (edges): ModuleList(
                      (0): PoolingLayer(
                        (pool): MaxPool2d(kernel_size=3, stride=1, padding=1, dilation=1, ceil_mode=False)
                      )
                      (1): DepthConvLayer(
                        (bn): BatchNorm2d(98, eps=1e-05, momentum=0.1, affine=True, track_running_stats=True)
                        (activation): ReLU(inplace=True)
                        (depth_conv): Conv2d(98, 98, kernel_size=(3, 3), stride=(1, 1), padding=(2, 2), dilation=(2, 2), groups=98, bias=False)
                        (point_conv): Conv2d(98, 98, kernel_size=(1, 1), stride=(1, 1), bias=False)
                      )
                    )
                    (child_nodes): ModuleList(
                      (0-1): 2 x None
                    )
                    (branch_bns): ModuleList(
                      (0-1): 2 x None
                    )
                  )
                  (1): TreeNode(
                    (edges): ModuleList(
                      (0-1): 2 x DepthConvLayer(
                        (bn): BatchNorm2d(98, eps=1e-05, momentum=0.1, affine=True, track_running_stats=True)
                        (activation): ReLU(inplace=True)
                        (depth_conv): Conv2d(98, 98, kernel_size=(3, 3), stride=(1, 1), padding=(1, 1), groups=98, bias=False)
                        (point_conv): Conv2d(98, 98, kernel_size=(1, 1), stride=(1, 1), bias=False)
                      )
                    )
                    (child_nodes): ModuleList(
                      (0-1): 2 x None
                    )
                    (branch_bns): ModuleList(
                      (0-1): 2 x None
                    )
                  )
                )
                (branch_bns): ModuleList(
                  (0-1): 2 x None
                )
              )
            )
            (branch_bns): ModuleList(
              (0-1): 2 x BatchNorm2d(98, eps=1e-05, momentum=0.1, affine=True, track_running_stats=True)
            )
          )
        )
        (branch_bns): ModuleList(
          (0): None
        )
      )
      (final_bn): BatchNorm2d(392, eps=1e-05, momentum=0.1, affine=True, track_running_stats=True)
    )
    (54): ResidualTreeBlock(
      (in_bottle): ConvLayer(
        (bn): BatchNorm2d(392, eps=1e-05, momentum=0.1, affine=True, track_running_stats=True)
        (conv): Conv2d(392, 100, kernel_size=(1, 1), stride=(1, 1), bias=False)
      )
      (out_bottle): ConvLayer(
        (bn): BatchNorm2d(100, eps=1e-05, momentum=0.1, affine=True, track_running_stats=True)
        (activation): ReLU(inplace=True)
        (conv): Conv2d(100, 400, kernel_size=(1, 1), stride=(1, 1), bias=False)
      )
      (shortcut): IdentityLayer()
      (cell): TreeNode(
        (edges): ModuleList(
          (0): ConvLayer(
            (bn): BatchNorm2d(100, eps=1e-05, momentum=0.1, affine=True, track_running_stats=True)
            (activation): ReLU(inplace=True)
            (conv): Conv2d(100, 200, kernel_size=(3, 3), stride=(1, 1), padding=(1, 1), groups=2, bias=False)
          )
        )
        (child_nodes): ModuleList(
          (0): TreeNode(
            (edges): ModuleList(
              (0-1): 2 x IdentityLayer()
            )
            (child_nodes): ModuleList(
              (0): TreeNode(
                (edges): ModuleList(
                  (0-1): 2 x DepthConvLayer(
                    (bn): BatchNorm2d(100, eps=1e-05, momentum=0.1, affine=True, track_running_stats=True)
                    (activation): ReLU(inplace=True)
                    (depth_conv): Conv2d(100, 100, kernel_size=(7, 7), stride=(1, 1), padding=(3, 3), groups=100, bias=False)
                    (point_conv): Conv2d(100, 100, kernel_size=(1, 1), stride=(1, 1), bias=False)
                  )
                )
                (child_nodes): ModuleList(
                  (0): TreeNode(
                    (edges): ModuleList(
                      (0): DepthConvLayer(
                        (bn): BatchNorm2d(100, eps=1e-05, momentum=0.1, affine=True, track_running_stats=True)
                        (activation): ReLU(inplace=True)
                        (depth_conv): Conv2d(100, 100, kernel_size=(3, 3), stride=(1, 1), padding=(1, 1), groups=100, bias=False)
                        (point_conv): Conv2d(100, 100, kernel_size=(1, 1), stride=(1, 1), bias=False)
                      )
                      (1): PoolingLayer(
                        (pool): MaxPool2d(kernel_size=3, stride=1, padding=1, dilation=1, ceil_mode=False)
                      )
                    )
                    (child_nodes): ModuleList(
                      (0-1): 2 x None
                    )
                    (branch_bns): ModuleList(
                      (0-1): 2 x None
                    )
                  )
                  (1): TreeNode(
                    (edges): ModuleList(
                      (0): DepthConvLayer(
                        (bn): BatchNorm2d(100, eps=1e-05, momentum=0.1, affine=True, track_running_stats=True)
                        (activation): ReLU(inplace=True)
                        (depth_conv): Conv2d(100, 100, kernel_size=(5, 5), stride=(1, 1), padding=(2, 2), groups=100, bias=False)
                        (point_conv): Conv2d(100, 100, kernel_size=(1, 1), stride=(1, 1), bias=False)
                      )
                      (1): IdentityLayer()
                    )
                    (child_nodes): ModuleList(
                      (0-1): 2 x None
                    )
                    (branch_bns): ModuleList(
                      (0-1): 2 x None
                    )
                  )
                )
                (branch_bns): ModuleList(
                  (0-1): 2 x None
                )
              )
              (1): TreeNode(
                (edges): ModuleList(
                  (0): DepthConvLayer(
                    (bn): BatchNorm2d(100, eps=1e-05, momentum=0.1, affine=True, track_running_stats=True)
                    (activation): ReLU(inplace=True)
                    (depth_conv): Conv2d(100, 100, kernel_size=(5, 5), stride=(1, 1), padding=(2, 2), groups=100, bias=False)
                    (point_conv): Conv2d(100, 100, kernel_size=(1, 1), stride=(1, 1), bias=False)
                  )
                  (1): PoolingLayer(
                    (pool): MaxPool2d(kernel_size=3, stride=1, padding=1, dilation=1, ceil_mode=False)
                  )
                )
                (child_nodes): ModuleList(
                  (0): TreeNode(
                    (edges): ModuleList(
                      (0): PoolingLayer(
                        (pool): MaxPool2d(kernel_size=3, stride=1, padding=1, dilation=1, ceil_mode=False)
                      )
                      (1): DepthConvLayer(
                        (bn): BatchNorm2d(100, eps=1e-05, momentum=0.1, affine=True, track_running_stats=True)
                        (activation): ReLU(inplace=True)
                        (depth_conv): Conv2d(100, 100, kernel_size=(3, 3), stride=(1, 1), padding=(1, 1), groups=100, bias=False)
                        (point_conv): Conv2d(100, 100, kernel_size=(1, 1), stride=(1, 1), bias=False)
                      )
                    )
                    (child_nodes): ModuleList(
                      (0-1): 2 x None
                    )
                    (branch_bns): ModuleList(
                      (0-1): 2 x None
                    )
                  )
                  (1): TreeNode(
                    (edges): ModuleList(
                      (0): DepthConvLayer(
                        (bn): BatchNorm2d(100, eps=1e-05, momentum=0.1, affine=True, track_running_stats=True)
                        (activation): ReLU(inplace=True)
                        (depth_conv): Conv2d(100, 100, kernel_size=(3, 3), stride=(1, 1), padding=(1, 1), groups=100, bias=False)
                        (point_conv): Conv2d(100, 100, kernel_size=(1, 1), stride=(1, 1), bias=False)
                      )
                      (1): DepthConvLayer(
                        (bn): BatchNorm2d(100, eps=1e-05, momentum=0.1, affine=True, track_running_stats=True)
                        (activation): ReLU(inplace=True)
                        (depth_conv): Conv2d(100, 100, kernel_size=(7, 7), stride=(1, 1), padding=(3, 3), groups=100, bias=False)
                        (point_conv): Conv2d(100, 100, kernel_size=(1, 1), stride=(1, 1), bias=False)
                      )
                    )
                    (child_nodes): ModuleList(
                      (0-1): 2 x None
                    )
                    (branch_bns): ModuleList(
                      (0-1): 2 x None
                    )
                  )
                )
                (branch_bns): ModuleList(
                  (0-1): 2 x None
                )
              )
            )
            (branch_bns): ModuleList(
              (0-1): 2 x BatchNorm2d(100, eps=1e-05, momentum=0.1, affine=True, track_running_stats=True)
            )
          )
        )
        (branch_bns): ModuleList(
          (0): None
        )
      )
      (final_bn): BatchNorm2d(400, eps=1e-05, momentum=0.1, affine=True, track_running_stats=True)
    )
    (55): TransitionBlock(
      (layers): ModuleList(
        (0): PoolingLayer(
          (bn): BatchNorm2d(400, eps=1e-05, momentum=0.1, affine=True, track_running_stats=True)
          (activation): ReLU(inplace=True)
          (pool): AvgPool2d(kernel_size=8, stride=8, padding=0)
        )
      )
    )
  )
  (classifier): LinearLayer(
    (linear): Linear(in_features=400, out_features=10, bias=True)
  )
)
